Assignment4/policy_net_max.pth (torch, 475936 bytes, 8 tensors)

layer1.weight f4 [256, 72]
0	0xbd41ebb1	-0.047343913
1	0xbcc25d67	-0.023726178
2	0xbdc4a4ec	-0.09601769
3	0xbbc7dcd3	-0.0060993223
4	0xbc9e6bf3	-0.019338584
5	0xbdc665e2	-0.09687401
6	0xbcbc9d26	-0.023024153
7	0x3d10d9d1	0.035363976
8	0x3c1e05b9	0.009644919
9	0x3cb21181	0.021736862
10	0x3e0af9ea	0.13571897
11	0x3d518c42	0.05115915
12	0xbe2d45e1	-0.16921188
13	0x3d6e2bc4	0.058147207
14	0xbc8641c9	-0.01638879
15	0x3dc812c5	0.09769205
16	0x3bd25c30	0.006419681
17	0x3d999caf	0.07500588
18	0x3e814cb1	0.25253823
19	0xbe01ada6	-0.12663898
20	0xbba4350a	-0.0050112056
21	0xbb1c787e	-0.002387553
22	0xbd9b329e	-0.07578014
23	0xbbd2b3f3	-0.006430143
24	0xbe490dee	-0.1963422
25	0xbca18be2	-0.019720022
26	0xbd93ea8e	-0.07222472
27	0x3d912e43	0.07088902
28	0x3e1252c1	0.1428938
29	0xbd47b535	-0.048756797
30	0x3cc73548	0.024317399
31	0xbdb7e950	-0.08980048
32	0xbd98528a	-0.07437618
33	0x3e1744c7	0.1477233
34	0x3da58ce7	0.080835156
35	0x3d5880a6	0.052857064
36	0x3e1aca6c	0.1511628
37	0xbbcce588	-0.006252948
38	0xb9b025ca	-0.0003359749
39	0x3e8b71fb	0.27235398
40	0x3d1fcfb5	0.039016444
41	0x3d96c678	0.07362074
42	0xbcda26dc	-0.026629858
43	0x3e97ab06	0.29622668
44	0xbebe527d	-0.3717231
45	0x3d751367	0.059832957
46	0xbc57a83a	-0.013162667
47	0xbd827699	-0.06370277
48	0xbc5fb5fa	-0.013654226
49	0x3dd963bc	0.10614726
50	0xbe2c8d56	-0.1685079
51	0x3dfa8b78	0.12233633
52	0xbd9be00d	-0.07611094
53	0xbdb332a6	-0.08749895
54	0x3e2ee1e1	0.17078353
55	0xbd4b91a3	-0.049699437
56	0xbd229bff	-0.03969955
57	0xbda982e2	-0.08276917
58	0x3e68501d	0.22686811
59	0x3e3fcfe5	0.18731649
60	0xbdc7fbf6	-0.097648546
61	0xbe43352b	-0.1906325
62	0x3d93955f	0.07206225
63	0x3dab6208	0.08368307
64	0x3de55a60	0.11198878
65	0xbdaae671	-0.083447345
66	0x3dcd85ac	0.100352615
67	0x3d3545f7	0.044256177
68	0xbd0578bb	-0.03258584
69	0xbdef0c73	-0.116722964
70	0xbd0e5379	-0.034747574
71	0x3ce8c558	0.028414413
72	0x3e3afc83	0.18260388
73	0x3e79fac8	0.24412072
74	0x3e600bcc	0.218795
75	0x3e271c1a	0.16319314
76	0xbd5e159f	-0.05421984
77	0xbd2a90d7	-0.041642036
78	0x3db3c234	0.08777276
79	0x3c3dd3f4	0.011586178
80	0xbda972c9	-0.08273847
81	0x3ddd64da	0.108102515
82	0xbe2ebebf	-0.17064951
83	0x3c9398ba	0.018017162
84	0x3c698cc6	0.014254754
85	0xbc8c74f4	-0.017145611
86	0x3d097a07	0.03356364
87	0x3cb1295d	0.021626169
88	0xbe6ed311	-0.23322703
89	0x3daeaa3d	0.08528564
90	0x3d7bc52d	0.06146734
91	0x3e1db6f0	0.15401816
92	0x3d88626d	0.06659398
93	0x3d817287	0.063206725
94	0xbe5f9515	-0.21834214
95	0xbdc4b7f3	-0.09605398
96	0x3e171655	0.14754613
97	0xbcf8b74b	-0.030360838
98	0xbd5ee2a3	-0.054415356
99	0x3d1c40ef	0.038147863
100	0xbd84dd52	-0.06487526
101	0xbd89ea59	-0.067341514
102	0x3d048e8d	0.03236251
103	0x3ce39dd6	0.027785223
104	0x3c5a0c15	0.013308545
105	0x3da4e122	0.08050753
106	0xbcc9f849	-0.024654524
107	0x3de8fd4a	0.11376436
108	0xbcb8253c	-0.022478692
109	0xbc20c7df	-0.009813278
110	0x3c91a672	0.017779563
111	0x3d94e817	0.0727083
112	0x3e07424f	0.13208888
113	0xbd358b24	-0.044322148
114	0x3d9b77f1	0.075912364
115	0x3bc117a9	0.005892713
116	0xbd820ed2	-0.06350483
117	0xba4d77de	-0.0007837991
118	0x3de49add	0.1116235
119	0xbd7776b7	-0.06041595
120	0x3c9e5764	0.01932878
121	0x3d180eb2	0.03712339
122	0x3d703c42	0.058651216
123	0x39aa4d7d	0.0003248266
124	0x3e1642b1	0.14673878
125	0x3e0010b6	0.12506375
126	0x3d10fcf0	0.03539747
127	0xbdfa1c36	-0.12212412
128	0x3e0af1ab	0.13568752
129	0xbaf0926c	-0.0018354184
130	0x3e097fc6	0.13427648
131	0xbd086374	-0.03329797
132	0x3d1e3d9b	0.03863297
133	0x3c706500	0.014672518
134	0x3d71ecaa	0.05906359
135	0x3e55cbfe	0.20878598
136	0xbd0c7337	-0.034289565
137	0x3cf2b5c0	0.02962768
138	0xbbb76a9a	-0.0055974247
139	0xbcbfd768	-0.023418143
140	0xbd5890c4	-0.052872434
141	0x3bc8826c	0.006119063
142	0xbcd2af31	-0.025718303
143	0xbda3c94b	-0.07997378
144	0x3d67c782	0.05658675
145	0x3d3410d0	0.043961346
146	0xba7c1af0	-0.0009617051
147	0x3b1b157a	0.0023663924
148	0x3d0e22ec	0.034701273
149	0xbdc1b15b	-0.09457656
150	0x3c789e38	0.015174441
151	0x3dc0b888	0.094101965
152	0x3cc55e85	0.024092922
153	0xbc20f3cd	-0.009823752
154	0xbdc25d56	-0.09490459
155	0xbdef927c	-0.116978616
156	0x3d9aeacc	0.07564315
157	0x3e107cd1	0.14110114
158	0xbc9f73e7	-0.019464446
159	0x3d0c1e75	0.034208734
160	0xbd513127	-0.051072266
161	0xbd94276c	-0.072340816
162	0x3bc46a89	0.0059941453
163	0xbd9be161	-0.07611347
164	0x3d8eaef5	0.06966964
165	0x3d3c9a1e	0.046045415
166	0xbd848a25	-0.064716615
167	0x3d97af5e	0.074064955
168	0xbe413400	-0.18867493
169	0xbdc8d6a9	-0.09806568
170	0x3d846dd5	0.06466261
171	0xbd1cfa31	-0.03832454
172	0x3df72d40	0.12069178
173	0x3c2fdf00	0.01073432
174	0x3d3eb934	0.046563342
175	0x3e47085a	0.1943678
176	0x3d34fa41	0.044183973
177	0xbc968610	-0.018374473
178	0xbd384f27	-0.04499736
179	0xbba1fe99	-0.0049436805
180	0x3db35006	0.08755498
181	0x397578f7	0.00023410084
182	0x3cfb0bd6	0.030645292
183	0xbbd68858	-0.006547015
184	0x3cc3524f	0.023842959
185	0x3da8ce70	0.082425
186	0xbcf236f5	-0.029567221
187	0x3c97d1ce	0.01853266
188	0x3daa7787	0.08323579
189	0xbd569c7b	-0.052395325
190	0x3d0574b4	0.032582
191	0xbdb1d314	-0.08682838
192	0xbd851322	-0.0649779
193	0x3d8b35ff	0.06797408
194	0x3c886f78	0.016654715
195	0xbcc6c6cf	-0.024264721
196	0x3d0dafd5	0.034591515
197	0x3d8606f0	0.06544292
198	0x3e1e2a31	0.15445782
199	0x3da547f4	0.080703646
200	0x3df8b904	0.12144664
201	0xbccaf92a	-0.024777014
202	0xbe4f8bb4	-0.20268136
203	0xbe7a5f48	-0.2445041
204	0x3c90cb66	0.017675113
205	0xbdd3d2e8	-0.103429615
206	0xbe9935ab	-0.29923758
207	0xbe118eb9	-0.142146
208	0x3dd2b006	0.1028748
209	0x3e192bc0	0.14958096
210	0x3da7e4b9	0.08197922
211	0x3d319574	0.04335542
212	0x3e00aabe	0.12565133
213	0x3df96a96	0.12178533
214	0xbe3ae6d1	-0.18252112
215	0xbe430f1a	-0.1904873
216	0x3d83f164	0.06442526
217	0x3d95aca2	0.07308318
218	0xbc50fe49	-0.012755939
219	0x3dbfff73	0.09374895
220	0xbda535db	-0.08066913
221	0xbe081ae2	-0.13291505
222	0xbd734375	-0.059390504
223	0xbcd3addd	-0.02583974
224	0x3e16e56e	0.14735958
225	0xbd3d945d	-0.04628407
226	0x3bc147d0	0.0058984533
227	0xbdc5e70e	-0.09663211
228	0xbda111f4	-0.078647524
229	0xbe6ac5e0	-0.22927046
230	0x3d6d0a2b	0.057871025
231	0x3e434384	0.19068724
232	0xbe401a53	-0.18760042
233	0xbacecc42	-0.0015777426
234	0xbaf0058c	-0.00183122
235	0xbc84dfa2	-0.016219918
236	0xbecb1aa2	-0.39668757
237	0x3c39d2ee	0.011341793
238	0xbc942046	-0.018081795
239	0xbe204f7e	-0.15655324
240	0x3e117f84	0.142088
241	0x3c8f7ca7	0.017515494
242	0xbe896536	-0.2683503
243	0xbe8a7134	-0.27039492
244	0x3dd30010	0.10302746
245	0xbecb5b41	-0.3971806
246	0xbd168b3e	-0.036753885
247	0x3d2cbe6c	0.042173788
248	0x3e374775	0.17898352
249	0xbea7303d	-0.3265399
250	0xbe28de32	-0.16491011
251	0xbebc4a0a	-0.36775237
252	0x3c09e128	0.008415498
253	0x3dc2d33c	0.09512946
254	0x3dca69a9	0.09883434
255	0x3d027c04	0.03185655

layer1.bias f4 [256]
0	0x3de51209	0.111850806
1	0xbe2c82f1	-0.16846825
2	0x3dc7252e	0.09723888
3	0x3c8c9a3a	0.017163385
4	0xbdd4278a	-0.10359104
5	0x3d1c3c9e	0.038143747
6	0xbcba8faa	-0.022773582
7	0x3e3edaef	0.18638204
8	0xbdb30d34	-0.08742753
9	0x3e570218	0.20996892
10	0x3cb812c4	0.022469886
11	0x3da0fd04	0.07860759
12	0xbd5137f5	-0.051078755
13	0x3d61bf29	0.055113945
14	0xbdee8ac1	-0.11647559
15	0xbd8fec6d	-0.070275165
16	0x3deb724c	0.1149641
17	0x3e19d21c	0.15021557
18	0x3d8a1483	0.067421935
19	0x3da7b61f	0.08189034
20	0x3db0ef74	0.08639422
21	0xbd3b4dc5	-0.045728464
22	0x3a04206c	0.00050402316
23	0xbd723695	-0.059134085
24	0xbcdb0006	-0.02673341
25	0x3ae8bec8	0.0017757053
26	0x3e153fdf	0.14575146
27	0x3db9ef8f	0.09078895
28	0x3ded27b5	0.11579839
29	0x3bcd442b	0.00626423
30	0xbca6d7c9	-0.020366566
31	0x3d5eea26	0.05442252
32	0x3dcc4328	0.099737465
33	0x3d2727dd	0.0408095
34	0x3e5c9393	0.2154067
35	0x3d78145f	0.060566302
36	0xbe058549	-0.13039126
37	0x3e3d2784	0.18472105
38	0xbe4ba505	-0.19887169
39	0x3e1494ab	0.14509837
40	0x3dda372c	0.106550545
41	0xbb850e7e	-0.0040605655
42	0x3e870ad4	0.2637545
43	0xbe0086de	-0.12551448
44	0x3e230665	0.15920408
45	0x3e04d70b	0.12972657
46	0x3e27b0f8	0.16376102
47	0xbd3d3446	-0.04619243
48	0x3da1fb94	0.07909313
49	0x3de690e3	0.11258104
50	0x3e6839a0	0.22678232
51	0x3d081990	0.033227503
52	0x3e139d62	0.14415506
53	0xbe009ad5	-0.12559064
54	0x3c34aa28	0.011026897
55	0x3d620135	0.055176932
56	0x3e44dad0	0.19224095
57	0xbdecb6ff	-0.11558341
58	0xbd5a6199	-0.053315733
59	0xbc3e5f37	-0.011619381
60	0xbd128e91	-0.035780493
61	0x3e2e2c8e	0.17009184
62	0xbc545a78	-0.012961023
63	0x3dcdc550	0.100474
64	0xbde24b7d	-0.110495545
65	0x3d9d20c7	0.076722674
66	0x3e085948	0.13315308
67	0x3e456c87	0.19279681
68	0x3de35ee8	0.11102086
69	0x3d4bb7dc	0.04973589
70	0x3d6e9204	0.05824472
71	0x3d81047a	0.06299682
72	0xbd09675c	-0.033545837
73	0x3e4fb8b7	0.20285307
74	0x3d8ce907	0.06880384
75	0xbc5dd30e	-0.013539089
76	0xbdc8c191	-0.09802545
77	0xbd399622	-0.045309193
78	0x3c1c4ed7	0.009540281
79	0xbd3fe5fc	-0.04685019
80	0x3e3a328b	0.18183343
81	0xbc896467	-0.016771508
82	0xbd1589b8	-0.036508292
83	0x3daf9c6b	0.08574756
84	0x3d3feb68	0.04685536
85	0x3d5e042a	0.05420319
86	0xbcc2a4d3	-0.023760235
87	0xbe141d3c	-0.14464277
88	0x3e0a32d6	0.13495955
89	0x3ceaf0ec	0.028679334
90	0xbdee4fb5	-0.11636297
91	0x3e6db2b6	0.23212704
92	0x3d506f2a	0.050887264
93	0x3e5d8508	0.21632779
94	0x3d000cf9	0.03126237
95	0x3d8339c3	0.064075015
96	0x3e2debc3	0.16984467
97	0x3e39733a	0.18110362
98	0xbdb59cdb	-0.088678084
99	0xbd78b846	-0.06072261
100	0x3e15907b	0.14605896
101	0x3d6835c4	0.0566919
102	0x3c48b0c9	0.01224918
103	0xbda14124	-0.07873753
104	0x3e234c8a	0.15947166
105	0x3d891aee	0.066945896
106	0xbd4ed98a	-0.05050043
107	0x3e1de6fa	0.15420142
108	0x3d7ac0de	0.06121909
109	0x3dc653fe	0.09683989
110	0x3da68ffe	0.08132933
111	0x3e40296d	0.18765803
112	0x3d9374f3	0.07200041
113	0x3e4c7c6e	0.19969341
114	0x3cae1c94	0.021253861
115	0x3dc25877	0.094895296
116	0xbe0422e8	-0.1290394
117	0xbe0a693a	-0.13516703
118	0xbd09b475	-0.033619363
119	0x3e3c5184	0.1839047
120	0x3de0af02	0.1097088
121	0x3d919508	0.071085036
122	0x3c657791	0.014005558
123	0x3d26504e	0.04060393
124	0x3e67abf9	0.22624196
125	0x3da14553	0.07874551
126	0x3d6dbb69	0.058040056
127	0xbd1573d7	-0.036487427
128	0x3ce77466	0.028253745
129	0xbe26210c	-0.16223544
130	0x3e1faeba	0.15593997
131	0x3dd6266c	0.10456547
132	0x3e1d212f	0.1534469
133	0x3d784c83	0.060619842
134	0xbe122152	-0.14270523
135	0xbd55fd6f	-0.052243646
136	0x3d1ff5b2	0.039052673
137	0x3e34746b	0.17622535
138	0x3e4cea73	0.2001131
139	0x3e075b84	0.13218504
140	0x3cd868ff	0.026417254
141	0x3dad391b	0.08458158
142	0x3db67214	0.089084774
143	0xbde90e77	-0.11379712
144	0xbd8feea5	-0.0702794
145	0xbc6fb193	-0.014629739
146	0x3d688413	0.05676658
147	0xbe2469f8	-0.16056049
148	0x3e3d42e6	0.18482551
149	0x3cd11c94	0.025526322
150	0x3dcf5033	0.10122719
151	0xbd20ff20	-0.039305806
152	0x3deb5fb4	0.11492863
153	0x3d17f59b	0.037099462
154	0xbc3c44b2	-0.011490988
155	0x3e065a10	0.13120294
156	0xbe0f70dc	-0.14007896
157	0x3c8d14a4	0.017221756
158	0x3d9caed1	0.07650531
159	0x3de03cc7	0.10949092
160	0xbd9b6b7d	-0.07588861
161	0x3db484d9	0.08814401
162	0xbddcc7cd	-0.107802965
163	0x3dac9b67	0.08428078
164	0x3d181193	0.037126135
165	0x3dd813dc	0.10550663
166	0x3dfca404	0.12335971
167	0x3ced4fda	0.02896874
168	0xbd8be622	-0.06831004
169	0x3e5cad2c	0.21550435
170	0x3e6e5b49	0.2327701
171	0x3cd96c26	0.026540827
172	0xba534a15	-0.00080600503
173	0x3e20df54	0.15710193
174	0x3e6e74c9	0.23286738
175	0xbd48a039	-0.048980925
176	0xbe2e4a25	-0.17020471
177	0x3e5084aa	0.20363107
178	0x3e5c06ee	0.21487018
179	0x3e86adde	0.26304525
180	0x3d1f8ac7	0.038950708
181	0xbd3888e3	-0.04505242
182	0x3dd8b213	0.1058084
183	0xbd940590	-0.072276235
184	0xbd94db69	-0.07268412
185	0xbc587738	-0.013212018
186	0xbc734afe	-0.0148494225
187	0x3b4fb6e7	0.0031694712
188	0x3e2b15ba	0.16707507
189	0x3e8993dd	0.26870623
190	0xbdb0d130	-0.08633649
191	0x3def1c7e	0.11675356
192	0xbd96e5b8	-0.07368034
193	0xbde9af73	-0.114104174
194	0xbdd15795	-0.10221783
195	0x3ce4ad80	0.027914762
196	0x3e7d8059	0.24755992
197	0xbd9d5e60	-0.07684016
198	0x3d58a296	0.05288943
199	0x3e4c3c26	0.1994482
200	0x3ce8c9c6	0.028416526
201	0x3e46fac3	0.19431596
202	0xbd677255	-0.05650552
203	0xbd8a6b4e	-0.06758748
204	0x3e358eb3	0.17730217
205	0x3d848f01	0.06472588
206	0x3e53348b	0.20625512
207	0xbdcab0ba	-0.09896989
208	0x3d4edee9	0.050505552
209	0xbd8356ef	-0.06413066
210	0x3e4ca695	0.19985421
211	0x3d724572	0.05914826
212	0x3dc77b06	0.09740262
213	0xbdd16804	-0.102249175
214	0xbd50d828	-0.050987393
215	0x3e1fee62	0.1561828
216	0x3d95dd50	0.07317603
217	0x3d8cd8ca	0.06877287
218	0x3e7f57e3	0.2493587
219	0x3dce535b	0.100744925
220	0xbc6be1b5	-0.0143970745
221	0x3dc28198	0.09497374
222	0x3de23769	0.11045725
223	0xbd7d2abd	-0.061808337
224	0x3dd66345	0.10468153
225	0xbd4a5106	-0.049393676
226	0x3e26a84c	0.16275138
227	0xbe4d5f8f	-0.20055984
228	0x3d67b3ef	0.056568082
229	0x3d3f2046	0.046661638
230	0xbd1e034f	-0.038577374
231	0xbdf190f0	-0.11795223
232	0x3d2b5464	0.041828528
233	0xbd217964	-0.039422408
234	0xbdb8ffe0	-0.09033179
235	0xbd999d16	-0.07500665
236	0x3c8a8c58	0.016912624
237	0x3e508abb	0.20365421
238	0x3dfe3e2c	0.12414202
239	0xbe1ea582	-0.15492824
240	0xbc849c4b	-0.016187808
241	0xbc325db8	-0.010886602
242	0xbdf9c9ab	-0.12196668
243	0xbd3c9254	-0.046037987
244	0x3da1ea8c	0.079060644
245	0xbddfe94e	-0.10933171
246	0xbc857a05	-0.016293535
247	0x3dcf8656	0.101330444
248	0x3e1a84fa	0.15089789
249	0xbe1bc387	-0.15211307
250	0xbdef4f09	-0.11684997
251	0x3e0bef9f	0.13665627
252	0x3e0d1211	0.13776423
253	0xbd98904c	-0.074493974
254	0xbd9e9e83	-0.077450775
255	0xbcd7d5e8	-0.026347116

layer2.weight f4 [256, 256]
0	0xbcd76c5f	-0.026296793
1	0xbcb0bc28	-0.021574095
2	0x3d932539	0.07184834
3	0xbdff4d8d	-0.124659635
4	0x3e21a7a0	0.157866
5	0x3e1b434e	0.15162393
6	0x3db0b7d2	0.08628811
7	0x3dcbaa24	0.09944561
8	0x3d73f5b2	0.059560485
9	0xbde959b3	-0.11394062
10	0xbdce54cb	-0.10074767
11	0x3bd96e2f	0.0066354494
12	0xbdae0dd9	-0.08498735
13	0x3d8f7775	0.070052065
14	0x3da6107f	0.08108615
15	0x3c6cd36a	0.014454702
16	0xbda2448b	-0.0792323
17	0x3c0be789	0.008539089
18	0x3e021cda	0.12706318
19	0xbe57a733	-0.21059875
20	0xbddfcf98	-0.10928267
21	0xbded259e	-0.115794405
22	0xbd34c62b	-0.0441343
23	0x3e35f427	0.17768918
24	0x3d219e53	0.03945763
25	0xbd468964	-0.04847087
26	0x3e363147	0.17792235
27	0xbe06b814	-0.13156158
28	0xbd1ddd4e	-0.03854113
29	0xbe14944b	-0.14509694
30	0xbdfbecbd	-0.123010136
31	0x3c84aa3b	0.016194453
32	0x3cb6ce26	0.022315096
33	0xbda52cf0	-0.08065212
34	0xbd64a6c4	-0.055823103
35	0xbdd0d05f	-0.10195994
36	0xbd48c49e	-0.049015634
37	0x3c074307	0.008255727
38	0x3cffe787	0.03123833
39	0xbe04bb36	-0.1296204
40	0x3e1944d1	0.14967658
41	0xbdc8428f	-0.0977832
42	0x3e09d39c	0.13459629
43	0x3e00257c	0.12514299
44	0x3dcb9d41	0.09942103
45	0xbd50d059	-0.050979946
46	0x3cd44fc9	0.02591695
47	0xbcc9aea9	-0.024619417
48	0x3daf2a85	0.08553032
49	0xbda49d55	-0.08037821
50	0x3e27f7e0	0.1640315
51	0xbdbbffd7	-0.09179657
52	0x3db2e986	0.08735947
53	0x3bf04721	0.007332698
54	0x3d202b5c	0.03910385
55	0xbd789178	-0.060685605
56	0x3db6ebeb	0.089317165
57	0xbb01bb56	-0.0019795499
58	0xbdbe986c	-0.09306416
59	0x3e3632dd	0.1779284
60	0x3cb3c0a0	0.021942437
61	0x3e7f4d0f	0.2493174
62	0xbb530f91	-0.0032205323
63	0x3e2cdcdb	0.16881125
64	0xbc970d6f	-0.018439023
65	0x3de7b21a	0.11313267
66	0xbe09f1b6	-0.13471112
67	0xbd144761	-0.036200885
68	0xbe0659a3	-0.13120131
69	0xbc4cfc10	-0.012511268
70	0xbd3340a2	-0.04376281
71	0x3dcfa2ea	0.10138495
72	0xbdf8fdcf	-0.12157785
73	0xbdcccfe5	-0.1000059
74	0xbdff7900	-0.12474251
75	0xbded0025	-0.11572293
76	0x3d0e7c1b	0.034786325
77	0x3c77506a	0.015094856
78	0x3d387fc6	0.04504373
79	0xbd4c76c8	-0.049917966
80	0x3e425f33	0.18981628
81	0x3d358973	0.044320535
82	0xbe13b612	-0.14424923
83	0x3da47e69	0.08031923
84	0xbcef3f21	-0.029204907
85	0x3c878db7	0.016547067
86	0x3cc2d8f7	0.023785098
87	0x3d5f6c7a	0.05454681
88	0x3dac3568	0.08408624
89	0xbca830f3	-0.020531153
90	0xbdd0d9f2	-0.1019782
91	0xbdde8286	-0.10864739
92	0xbcf13dad	-0.029448355
93	0x3d956b55	0.072958626
94	0x3e3fae26	0.18718776
95	0xbc75d5db	-0.0150046
96	0xbe3cf931	-0.18454434
97	0xbba2426f	-0.004951767
98	0x3a2211f4	0.0006182485
99	0x3ce43954	0.027859367
100	0xbcb14153	-0.021637594
101	0xbdcc34d0	-0.09971011
102	0xbc667918	-0.014066957
103	0xbdfb7e2e	-0.12279926
104	0x3d1585ba	0.036504485
105	0x3e2ed8d3	0.170749
106	0xbb9afc33	-0.0047297715
107	0xbd71be1a	-0.059019186
108	0x3daf6eff	0.08566093
109	0xbdc7756b	-0.097391926
110	0xbc8e9ae2	-0.017407838
111	0xbcbbd86c	-0.022930346
112	0x3dad99b1	0.0847658
113	0x3e0d7e42	0.13817695
114	0xbe2e2a63	-0.17008357
115	0x3da4b24b	0.08041819
116	0x3e13adbd	0.14421745
117	0xbbb328f0	-0.0054675266
118	0x3d17ad13	0.03703029
119	0xbd7a5bc7	-0.061122682
120	0x3e801f29	0.25023773
121	0xbd7460a1	-0.059662465
122	0xbd6a0319	-0.05713186
123	0x3e053dbe	0.13011834
124	0x3d96e228	0.07367355
125	0xbd01ae5b	-0.03166042
126	0xbd2b9783	-0.04189254
127	0xbd5a4522	-0.053288586
128	0xbd4dc2c6	-0.05023458
129	0xbda49d03	-0.0803776
130	0x3d00986a	0.031395353
131	0x3cfac030	0.03060922
132	0x3dd52cab	0.1040891
133	0xbe2bb0e9	-0.16766705
134	0xbd435310	-0.047686636
135	0xbd4c17b7	-0.049827304
136	0x3d24d3e1	0.040241126
137	0x3de0eea0	0.10983014
138	0xbd35a8fa	-0.0443506
139	0x3cbaf2c7	0.022820843
140	0x3e19cdca	0.15019909
141	0xbe8afb6b	-0.27144942
142	0xbe38eaa8	-0.18058264
143	0xbcb0400b	-0.021514913
144	0x3da0e52e	0.078562126
145	0x3de88435	0.113533415
146	0xbd645f3c	-0.055754885
147	0xbd15a441	-0.036533598
148	0x3c4f3990	0.012648001
149	0xbdbb6e7a	-0.09151931
150	0x3d99f273	0.07516947
151	0x3d604bca	0.054759778
152	0x3d923abd	0.0714011
153	0x3d3c4d86	0.04597237
154	0xbe10a47a	-0.14125243
155	0x3d3bc26c	0.045839712
156	0xbdc72a46	-0.0972486
157	0xbd89400b	-0.06701668
158	0xbe2f4dcf	-0.17119525
159	0xbdcbabb5	-0.0994486
160	0xbbf4ccaf	-0.0074706892
161	0x3df8f828	0.12156707
162	0xbc93f7a8	-0.018062428
163	0x3dd30415	0.10303513
164	0x3cad833e	0.021180745
165	0x3bbf2468	0.0058331974
166	0x3e04f92d	0.12985678
167	0x3e46eece	0.19427034
168	0xbd25424f	-0.04034644
169	0xbe71b80e	-0.23605368
170	0xbe5b253f	-0.21400927
171	0x3de114c9	0.109902926
172	0x3d40d912	0.047082014
173	0xbe0b5dba	-0.13609973
174	0x3e1286db	0.14309256
175	0xbe9105e9	-0.28324822
176	0xbe036703	-0.12832265
177	0x3e20d461	0.15706016
178	0x3d5562a5	0.052096028
179	0x3de9866d	0.11402593
180	0x3e4055a1	0.18782665
181	0x3b6f174d	0.0036482394
182	0x3c2cd144	0.01054794
183	0x3e1db52d	0.15401144
184	0xbdc434ca	-0.09580381
185	0x3d7b43d0	0.061343968
186	0x3c8e2b2d	0.017354572
187	0xbcc1ab43	-0.023641234
188	0x3e07fc3c	0.13279814
189	0x3dc80449	0.09766442
190	0x3b29700d	0.002585414
191	0xbd2b0c55	-0.041759808
192	0x3db8ec32	0.09029426
193	0xbd6030e9	-0.054734144
194	0x3c84bf4d	0.0162045
195	0xbdc8fc42	-0.09813739
196	0x3d70a1da	0.058748104
197	0xbca5384e	-0.02016845
198	0xbb429e08	-0.0029696245
199	0x3d812899	0.063065715
200	0x3aa2f013	0.0012431167
201	0xbd1ae84a	-0.037819184
202	0xbd851a45	-0.06499151
203	0xbda296c9	-0.07938916
204	0x3beba1e4	0.0071909297
205	0x3d94343f	0.07236528
206	0x3cb50f89	0.022102134
207	0xbd55eeed	-0.05222981
208	0xbce37bd2	-0.027769003
209	0x3dc9550a	0.09830673
210	0xbdce96ca	-0.100873545
211	0xbcc0b792	-0.023525033
212	0xbe333453	-0.17500429
213	0x3e0478d2	0.12936714
214	0x3e515990	0.20444322
215	0x3c6c8cd8	0.014437877
216	0x3d133180	0.03593588
217	0x3decbb4f	0.11559164
218	0x3c318ba1	0.010836513
219	0x3dddaf9c	0.108245105
220	0xbd9f7a2c	-0.07786974
221	0x3cce335c	0.025170974
222	0x3dfedfa8	0.12445003
223	0x3db9d983	0.0907469
224	0xbd0a50e9	-0.03376857
225	0xbcf03a03	-0.029324537
226	0x3dfe27ef	0.124099605
227	0xbd212308	-0.03934005
228	0x3e4024c5	0.18764026
229	0x3d972bf0	0.07381427
230	0xbcf32363	-0.02967996
231	0xbe8d938d	-0.27651635
232	0x3dc58af4	0.09645644
233	0xbdd6886d	-0.1047524
234	0x3d865dc7	0.06560855
235	0x3e25fa0f	0.16208671
236	0xbd875ff1	-0.06610096
237	0xbd8b93f9	-0.06815333
238	0xbdbdc2aa	-0.09265645
239	0xbcff474d	-0.031161929
240	0xbd53b811	-0.05168921
241	0x3e6eeec8	0.23333275
242	0x3d08e998	0.033425897
243	0xbc07d583	-0.008290651
244	0x3d32ce33	0.04365368
245	0x3e302185	0.17200287
246	0xbe1f1f05	-0.15539177
247	0xbda6aaaa	-0.0813802
248	0x3d86f027	0.06588774
249	0x3dbd5ac3	0.09245827
250	0x3cd0d3d9	0.025491642
251	0xbd80fe90	-0.06298554
252	0x3db54ad9	0.08852167
253	0x3dc05996	0.09392087
254	0xbd441a8f	-0.04787689
255	0xbbccd777	-0.0062512713

layer2.bias f4 [256]
0	0x3ded8a73	0.11598673
1	0x3da621bc	0.08111903
2	0xbda673b6	-0.08127539
3	0x3c45adc0	0.012065351
4	0x3cfb33d4	0.030664362
5	0x3c03075c	0.00799736
6	0x3debd1ee	0.1151465
7	0xbcf2ce7b	-0.029639473
8	0x3b637e72	0.0034712818
9	0x3cb61d9e	0.02223092
10	0xbcb845df	-0.022494255
11	0x3c864510	0.016390353
12	0x3e1ead63	0.1549583
13	0x3d3b8ece	0.045790486
14	0x3e49b441	0.19697668
15	0x3d8b9b36	0.068167135
16	0x3df25d33	0.118341826
17	0x3d2a3dfb	0.041563015
18	0xbd0af462	-0.033924468
19	0xbd86c4d7	-0.06580513
20	0xbd1f3658	-0.038870186
21	0x3d3f358a	0.04668192
22	0x3db29bcf	0.087211244
23	0x3b953113	0.0045529692
24	0x3d4b7506	0.04967215
25	0x3c9266a5	0.01787121
26	0x3e37c640	0.1794672
27	0x3d2819af	0.04104012
28	0x3d1e262f	0.038610633
29	0x3d91a272	0.07111062
30	0x3e38c878	0.18045223
31	0x3cc8bce8	0.02450414
32	0x3ddd519b	0.10806581
33	0xbc7823ad	-0.0151452245
34	0xbca79645	-0.020457396
35	0x3db8b1d7	0.09018295
36	0x3e65510f	0.22394203
37	0x3c1b5e2b	0.009482901
38	0x3d87a3da	0.06623049
39	0x3729fb66	1.0131718e-05
40	0x3daff00e	0.08590709
41	0x3bacdc61	0.0052752947
42	0x3e09798b	0.13425271
43	0x3c9ef23b	0.019402614
44	0x3e4063e6	0.18788108
45	0xbda5954c	-0.08085117
46	0x3e26cef2	0.16289881
47	0xbb8a9480	-0.0042291284
48	0x3d166091	0.036713187
49	0x3d992f1f	0.07479691
50	0x3c99c88b	0.018772384
51	0x3b23b6a1	0.0024980681
52	0xbc9dc17c	-0.0192573
53	0x3dc50000	0.096191406
54	0x3d14fa72	0.036371656
55	0x3ce00ae7	0.027348949
56	0x3dedb0f3	0.11606016
57	0xbbfea723	-0.007771389
58	0x3e2c6c4d	0.16838188
59	0xbcbb5616	-0.022868197
60	0x3cbb4592	0.022860322
61	0x3e82c8e1	0.25543883
62	0x3d3432d5	0.04399379
63	0x3e028702	0.12746814
64	0x3d9319f7	0.07182687
65	0x3da784ce	0.08179627
66	0xbd8836c3	-0.0665107
67	0x3d50906d	0.050918985
68	0xbcd0b563	-0.025477117
69	0x3de515ad	0.11185775
70	0xbd53c2ac	-0.051699325
71	0x3d0d554e	0.03450518
72	0x3c67be57	0.014144502
73	0x3e808a98	0.2510574
74	0x3d72a94e	0.059243493
75	0x3e3f7a53	0.18699007
76	0x3d1f0f94	0.038833216
77	0xbbe17801	-0.0068807607
78	0x3e32b77d	0.17452808
79	0x3b93e30a	0.004513149
80	0x3c85d3f0	0.016336411
81	0x3d05f1d9	0.032701347
82	0x3df5c053	0.119995736
83	0x3d8d5e5d	0.06902764
84	0xbe0e7236	-0.13910756
85	0x3cc50d5a	0.024054218
86	0xbbcfee97	-0.006345581
87	0x3e8bc8ba	0.2730158
88	0xbc55bec2	-0.0130459685
89	0x3dafdd89	0.08587176
90	0xbc240a0f	-0.010012164
91	0x3e7cf57e	0.24703023
92	0x3e65e835	0.22451861
93	0xbd65fa7c	-0.056147084
94	0x3d8ebb70	0.069693446
95	0x3e31957c	0.1734218
96	0x3e579e01	0.21056367
97	0x3e596b83	0.21232419
98	0x3c48823d	0.0122380825
99	0x3e6f4cc5	0.23369129
100	0x3c5ea818	0.013589881
101	0x3d61b8e3	0.055107962
102	0x3e283757	0.1642736
103	0x3ca86b28	0.020558909
104	0x3d35d3bf	0.04439139
105	0x3c6f79b5	0.01461642
106	0x3de39c68	0.111138165
107	0x3c5d411d	0.013504294
108	0x3d56a4c6	0.052403234
109	0x3cbb397b	0.022854557
110	0xbd0f54b8	-0.034992903
111	0x3ccaceba	0.024756778
112	0xbe11f013	-0.14251737
113	0x3d2c362f	0.04204386
114	0x3d69cc8c	0.057079837
115	0x3cec9d77	0.028883679
116	0x3e5f3942	0.21799186
117	0x38b999f9	8.850167e-05
118	0x3cb56100	0.02214098
119	0x3da45b97	0.08025282
120	0x3e046c72	0.12931994
121	0xbcd883eb	-0.02643009
122	0x3bba447d	0.005684434
123	0xbcde3eec	-0.027129613
124	0x3e209a41	0.15683843
125	0x3cc986b9	0.024600374
126	0x3cb7930b	0.022408983
127	0x3d04f606	0.03246119
128	0x3e214b0d	0.15751286
129	0xbcac9013	-0.021064794
130	0x3e3e034c	0.18555945
131	0xbd417182	-0.04722739
132	0x3db0a079	0.08624358
133	0x3d536899	0.051613424
134	0x3c248ae7	0.0100428825
135	0x3e05477c	0.1301555
136	0x3d3f10ae	0.046646766
137	0x3dc1ac84	0.09456733
138	0x3ce74f50	0.028236061
139	0x3e86d329	0.26332977
140	0x3d0a0c78	0.033703297
141	0xbbb5c843	-0.0055475547
142	0xbc8163a9	-0.015794592
143	0x3c694e67	0.014239884
144	0x3e735340	0.23762226
145	0x3e59cda9	0.2126986
146	0x3d1ca210	0.038240492
147	0xbe2a361d	-0.16622205
148	0xbb200804	-0.002441884
149	0x3e0c85e0	0.13722944
150	0x3d8a0f2e	0.067411765
151	0x3e41822c	0.18897313
152	0xbc98a036	-0.018631082
153	0x3d88ce38	0.06679958
154	0xbb5dbe49	-0.0033835343
155	0x3e435183	0.19074063
156	0x3d38f714	0.045157507
157	0x3d255627	0.040365364
158	0x3bdb58a6	0.0066939173
159	0xbc5f7e83	-0.013641003
160	0x3df6123a	0.12015195
161	0xbc95ed56	-0.018301647
162	0x3d68ec64	0.056866065
163	0x3e2288b7	0.15872465
164	0xbc841d56	-0.01612727
165	0x3cf27396	0.029596131
166	0x3e0e3825	0.13888605
167	0x3bcdd2d7	0.0062812376
168	0x3e3b431e	0.18287322
169	0x3e3501a2	0.17676404
170	0x3c3d8f0d	0.0115697505
171	0x3d3f35ef	0.046682294
172	0x3ccf8c2b	0.025335392
173	0x3d021e16	0.031766973
174	0x3d7d534f	0.061847027
175	0x3de3554d	0.11100254
176	0x3d13233c	0.035922274
177	0xbbf62bc2	-0.0075125406
178	0x3d19e4c3	0.03757168
179	0x3e607097	0.2191795
180	0x3d49c7b4	0.049262717
181	0x3e1bea13	0.15226011
182	0x3c9bed43	0.019034034
183	0x3db6b05d	0.089203574
184	0x3e8cb82e	0.27484268
185	0x3de36a55	0.111042656
186	0x3d635f7f	0.055510994
187	0x3e260384	0.16212279
188	0x3e5ae745	0.21377285
189	0x3d5b5e9c	0.053557023
190	0xbb8d3ed7	-0.0043104696
191	0x3d77c925	0.06049456
192	0xbc8b408d	-0.016998554
193	0x3e434938	0.190709
194	0x3cfa88cf	0.030582814
195	0xbd96fce1	-0.073724516
196	0x3d24df2b	0.040251892
197	0x3daa153f	0.083048336
198	0x3c78c83f	0.015184461
199	0xbd067c59	-0.03283343
200	0x3e20238c	0.1563856
201	0x3cc08260	0.023499668
202	0x3b9ad3cd	0.0047249557
203	0x3e6c882b	0.23098819
204	0x3dc230ce	0.09481965
205	0x3e7759da	0.2415537
206	0x3ce53ac2	0.02798212
207	0x3d7106b8	0.058844298
208	0x3e0c12a4	0.13678986
209	0x3e0d6908	0.13809597
210	0x3d076a87	0.033060577
211	0x3d1e3cc3	0.038632166
212	0x3e03dc70	0.12877059
213	0x3dd80ef3	0.10549726
214	0x3d1a3c9d	0.03765546
215	0x3e96bdc4	0.29441655
216	0xbc99be7d	-0.01876759
217	0x3e2fcdf2	0.17168406
218	0x3e74a9b4	0.23892862
219	0x3d6db673	0.058035325
220	0xbcb89eb3	-0.022536611
221	0x3e2e6318	0.17029989
222	0x3d036c14	0.032085493
223	0x3d7a7bc1	0.061153177
224	0x3d07e28a	0.03317503
225	0xbc86b9f5	-0.016446093
226	0x3e057401	0.13032533
227	0x3e1430ba	0.14471713
228	0x3e0c2b2a	0.13688341
229	0xbc0c92c7	-0.008579916
230	0xbcfbc67d	-0.030734295
231	0x3d0ca2b5	0.034334857
232	0x3e087209	0.13324751
233	0x3d6e5d62	0.058194526
234	0x3e0edfbb	0.13952534
235	0xb8e9fb4f	-0.00011157116
236	0xbcf49a85	-0.029858837
237	0x3e56054a	0.20900455
238	0x3e605ac3	0.21909623
239	0x3e13ca3b	0.14432614
240	0x3dd87778	0.10569662
241	0x3e53f2cf	0.20698093
242	0x3e71d13f	0.23614977
243	0x3dbd0576	0.09229557
244	0x3b67a3c8	0.0035345424
245	0xbb629e71	-0.0034579302
246	0x3cfa0be3	0.030523246
247	0x3e2feff8	0.17181385
248	0x3db32493	0.0874721
249	0x3dd3be91	0.10339082
250	0x3e7f9ff0	0.24963355
251	0x3d632287	0.05545285
252	0x3cb3e7bf	0.021961091
253	0xbc1e553a	-0.009663874
254	0xbb5e0d7b	-0.0033882547
255	0xbc736a95	-0.014856954

layer3.weight f4 [128, 256]
0	0xbc731fb5	-0.0148391025
1	0x3ca93729	0.020656185
2	0x3b8dcdd1	0.0043275137
3	0xbd860577	-0.06544011
4	0xbe161f59	-0.14660396
5	0x3c452be7	0.012034393
6	0xbcc8ca98	-0.024510667
7	0xbd7a4eac	-0.061110184
8	0xbca316ea	-0.019908387
9	0xbe0bc067	-0.13647614
10	0x3cef5a2d	0.029217804
11	0xba8bd5e5	-0.0010668604
12	0x3d18529c	0.037188157
13	0x3d06d87b	0.032921296
14	0x3be80a4f	0.007081307
15	0xbdc10022	-0.094238535
16	0xbd54e392	-0.05197484
17	0xbbd3f2b0	-0.0064681396
18	0x3d30f431	0.04320163
19	0xbdc11a72	-0.09428872
20	0xbdcb1d5e	-0.09917711
21	0x3d3b6af1	0.045756284
22	0x3c5bea19	0.013422512
23	0xbda0ed1d	-0.07857726
24	0xbdd164b6	-0.10224287
25	0x3d43cf73	0.04780526
26	0xbb709bed	-0.0036714033
27	0xbd51e7c9	-0.05124644
28	0xbd9ef176	-0.07760899
29	0xbe1e69f3	-0.15470104
30	0xbca2d364	-0.01987619
31	0xbd821d04	-0.063531905
32	0xbd5139f0	-0.051080644
33	0x3c88341f	0.016626416
34	0xbdac854e	-0.08423863
35	0x3c6e158d	0.014531505
36	0xbb3d08c3	-0.0028844334
37	0xbd455691	-0.04817826
38	0xba6bd64d	-0.0008996472
39	0x3d2bd35e	0.041949622
40	0xbda13608	-0.07871634
41	0xbe010849	-0.12600817
42	0xbca0c808	-0.019626632
43	0xbe102144	-0.1407519
44	0xbdd80a8e	-0.10548888
45	0xbccf1cb4	-0.025282241
46	0xbce245ac	-0.027621113
47	0xbe20ccfe	-0.15703198
48	0x3df32045	0.11871389
49	0x3db098f3	0.08622923
50	0xbd3b7d63	-0.045773875
51	0x3dc62f33	0.09676971
52	0xbd04ce1c	-0.032423124
53	0xbddf34d8	-0.10898751
54	0xbe1ae51f	-0.15126465
55	0xbdb17ab7	-0.08665984
56	0xbd3204ae	-0.043461494
57	0x3d9f443b	0.07776686
58	0x3c11b41f	0.008893042
59	0x3d89b4f1	0.06723965
60	0x3ddb688a	0.107132986
61	0x3c67ad01	0.014140368
62	0xbe20de9a	-0.15709916
63	0x3c8ca440	0.017168164
64	0xbe0e9aac	-0.1392619
65	0xbe0bc739	-0.13650216
66	0xbd0af1b1	-0.0339219
67	0x3d0fbb8a	0.03509096
68	0xbcb85e3b	-0.02250587
69	0x3c84d5ef	0.016215293
70	0xbc88b80e	-0.016689327
71	0x3b9c668a	0.004772966
72	0xbe1ad155	-0.15118916
73	0xbd33f1cf	-0.04393178
74	0xbc5cf432	-0.013485955
75	0xbd0157c9	-0.03157786
76	0x3c79de6c	0.015250783
77	0x3d559828	0.05214706
78	0x3c35501f	0.011066466
79	0xbe2d10cb	-0.16900937
80	0xbd22e0b4	-0.039765075
81	0x3b50c22a	0.0031854012
82	0xbd8737ca	-0.06602438
83	0xbd3c3d74	-0.045957044
84	0x3dee708f	0.116425626
85	0xbdf442b5	-0.11926786
86	0xbd2b8266	-0.041872405
87	0xbd024190	-0.031800807
88	0x3c077961	0.008268685
89	0x3d341f9f	0.04397547
90	0xbe57caf0	-0.21073508
91	0x3b587466	0.0033028363
92	0xbcc3df5c	-0.023910217
93	0x3ba4e1a4	0.0050317813
94	0xbdd90f63	-0.10598638
95	0xbbdc787b	-0.0067282296
96	0x3c95aa86	0.018269788
97	0xbc526fda	-0.01284405
98	0xbcb14dbf	-0.021643518
99	0xbc3cd1c9	-0.011524626
100	0xbde3461c	-0.11097357
101	0xbdaf3cbc	-0.08556506
102	0x3c50298e	0.01270522
103	0x3cef4dd5	0.029211918
104	0xbbfb3846	-0.0076666204
105	0xbd67dcf9	-0.05660722
106	0x3d4aa453	0.049473118
107	0xbe50a8f8	-0.20376956
108	0xbe111624	-0.14168602
109	0xbdac35a9	-0.08408672
110	0xbc10710f	-0.008816018
111	0xbd42e888	-0.04758504
112	0x3e60d859	0.2195753
113	0x3d6cf628	0.05785194
114	0xbd9f20e9	-0.07769949
115	0x3ca94c4d	0.020666266
116	0x3c98deb8	0.018660888
117	0xbbafe5af	-0.0053679566
118	0xbc6d9d9c	-0.014502909
119	0xbe264a79	-0.16239347
120	0xbd0e5782	-0.034751423
121	0x3b66207c	0.0035114577
122	0xbd9f21a9	-0.07770092
123	0xbb2d54d7	-0.0026448274
124	0xbd29a769	-0.04141942
125	0xbb5d1bb0	-0.0033738427
126	0xbc18e933	-0.009332943
127	0xbdee1ff7	-0.116271906
128	0x3cfc4bcf	0.030797867
129	0xbc5ef914	-0.01360919
130	0x3c33af11	0.010967032
131	0x3c90766d	0.017634595
132	0x3ce47ca9	0.027891474
133	0xbdbe4f21	-0.092924364
134	0xbdbe82ba	-0.09302278
135	0xbd7e32f7	-0.062060323
136	0x3cb07bd2	0.021543417
137	0xbde55854	-0.11198488
138	0xbde75586	-0.11295609
139	0xbd11e030	-0.035614192
140	0xbc4ad2bd	-0.0123793455
141	0x3d57ac82	0.05265475
142	0xbd384f23	-0.044997346
143	0xbb0f3f51	-0.0021857808
144	0xbc8c1360	-0.017099082
145	0x3d21ef4e	0.03953486
146	0x3d2a370a	0.041556396
147	0xbdb13dd4	-0.08654371
148	0xbd395464	-0.045246497
149	0xbcd177d6	-0.025569838
150	0xbdcc241b	-0.09967824
151	0xbcce7f86	-0.025207292
152	0x3d84c320	0.0648253
153	0x3d71aa7d	0.05900048
154	0xbd8e9776	-0.06962483
155	0x3d0ecf3a	0.034865595
156	0xbd9c989d	-0.07646296
157	0x3d1f7487	0.03892949
158	0xbe3ef4d5	-0.18648084
159	0x3da16356	0.07880275
160	0xbc99c50b	-0.018770715
161	0xbb97d86d	-0.0046339543
162	0x3c6da37d	0.014504311
163	0x3c3b6a5a	0.01143893
164	0x3d4de314	0.050265387
165	0xbd8da18b	-0.069155775
166	0x3d167e6f	0.03674167
167	0xbde65b02	-0.11247827
168	0x3cd21903	0.025646692
169	0x3c8d689d	0.017261798
170	0x3d1e4c75	0.038647134
171	0xbddd63f8	-0.10810083
172	0xbd7818ca	-0.060570516
173	0xbc91d151	-0.017800005
174	0xbde1732e	-0.11008297
175	0xbc36a299	-0.011147165
176	0x3c7027cd	0.014657927
177	0xbdb176fb	-0.08665272
178	0x3d4e3e92	0.05035264
179	0x3cad12ac	0.021127068
180	0xbd329e05	-0.04360773
181	0x3c257975	0.010099758
182	0xbd8a5b3d	-0.067556836
183	0x3cd486e9	0.025943236
184	0x3bcbbc0c	0.0062174853
185	0xbcb59199	-0.022164153
186	0xbe059ffb	-0.13049309
187	0x3aaed454	0.0013338425
188	0xbc85ef08	-0.01634933
189	0x3d58e122	0.05294908
190	0xbbb4b37e	-0.005514561
191	0xbde25f85	-0.11053375
192	0xbac6ab05	-0.0015157169
193	0x3c4f1cca	0.012641141
194	0xbc92e6d6	-0.017932337
195	0xbd86b12a	-0.0657676
196	0xbcee60d5	-0.029098907
197	0x3d226ca1	0.039654378
198	0xbdb34c9f	-0.08754849
199	0x3dbc9a5f	0.092091314
200	0x3c5307c2	0.012880268
201	0xbcf3be3d	-0.029753799
202	0xbd854163	-0.06506612
203	0xbb95dbb7	-0.004573311
204	0x3d509bca	0.050929822
205	0xbce45ccb	-0.027876278
206	0xbe2dc667	-0.16970216
207	0xbd488da3	-0.0489632
208	0x3caab9db	0.020840576
209	0xbd804797	-0.06263655
210	0xbd88f07f	-0.06686496
211	0xbda96675	-0.08271495
212	0xbe28654f	-0.16444896
213	0xbd22c849	-0.039741788
214	0xbd5c5d42	-0.053799875
215	0xbd35acc9	-0.044354234
216	0x3c5eb403	0.013592723
217	0xbcac5017	-0.021034284
218	0xbcfd801e	-0.03094488
219	0x3d059ff1	0.032623235
220	0x3d1dbff3	0.038513135
221	0xbd1692ab	-0.036760967
222	0xbe0205c3	-0.1269751
223	0x3d59ce0a	0.05317501
224	0xbd916f31	-0.07101286
225	0xbc562cf0	-0.013072237
226	0xbc5b9fed	-0.0134048285
227	0xbcad082e	-0.021122064
228	0xbc49bcb0	-0.012313053
229	0x3cb3b3ab	0.021936258
230	0xbbfe31c9	-0.0077573997
231	0xbdb91cf9	-0.09038729
232	0xbccfe947	-0.02537979
233	0x3d025cb0	0.031826675
234	0x3cb67f31	0.022277446
235	0xbde5b528	-0.112161934
236	0x3c55cf26	0.013049876
237	0x3cfd958f	0.030955104
238	0x3cca4c11	0.024694474
239	0x3baf6f6f	0.00535386
240	0xbcf8988a	-0.030346174
241	0xbc8f9060	-0.017524898
242	0xbd33862f	-0.04382914
243	0xbddafb07	-0.10692411
244	0xbd271f0f	-0.040801104
245	0x3cba30ff	0.022728441
246	0xbe522933	-0.20523529
247	0xbbb40263	-0.0054934486
248	0xbbea1681	-0.007143796
249	0xbdd1d1b2	-0.10245074
250	0xbcafe94b	-0.021473547
251	0xbdebab45	-0.115072764
252	0x3d5645d6	0.052312694
253	0xbdc9d061	-0.09854198
254	0x3c7d6732	0.015466498
255	0x3cbbc62e	0.022921648

layer3.bias f4 [128]
0	0xbc6043b5	-0.013688018
1	0x3e6157b6	0.22006115
2	0xbc84dfa1	-0.016219916
3	0x3e5870e8	0.2113682
4	0x3cddd95c	0.027081184
5	0xbc0d2ebe	-0.008617101
6	0x3d8c6cad	0.06856666
7	0xbdcf4708	-0.1012097
8	0x3e586239	0.21131219
9	0x3c937ae9	0.018002944
10	0xbca894b8	-0.020578727
11	0x3e212da0	0.15740061
12	0x3e471133	0.19440155
13	0x3d20debb	0.039274912
14	0xbd0acd75	-0.033887345
15	0x3b253441	0.0025208148
16	0x3c5ba8d6	0.013406953
17	0xbd0b0959	-0.03394446
18	0x3e10c82d	0.14138861
19	0x3ce8e05c	0.028427295
20	0xbd656545	-0.05600478
21	0x3e65dbb1	0.22447087
22	0x3e5f51ff	0.21808623
23	0x3e6c68bb	0.23086827
24	0x3e4c040c	0.19923419
25	0x3e86a085	0.26294342
26	0xbd5b991d	-0.053612817
27	0x3e5333ca	0.20625225
28	0x3e3f411c	0.18677181
29	0xbc27f34e	-0.010250879
30	0xbd75a444	-0.05997111
31	0xbd38d6d1	-0.04512674
32	0xbdce920a	-0.100864485
33	0xbd0b8484	-0.034061924
34	0x3d154553	0.036443066
35	0x3e252564	0.16127545
36	0xbcf4124b	-0.029793879
37	0xbcd0739d	-0.025445754
38	0x3d53a98d	0.051675368
39	0x3b4b14f6	0.0030987835
40	0x3c095d11	0.008384005
41	0xbda416cd	-0.080121614
42	0x3e40a9e2	0.18814805
43	0x3b85c5e4	0.0040824283
44	0x3de2ee9f	0.110806696
45	0xbc860823	-0.016361302
46	0x3c0acf3e	0.008472262
47	0xbe786728	-0.24258101
48	0x3df057d6	0.117355034
49	0x3e2ba0f6	0.1676062
50	0xbd249c64	-0.04018821
51	0xbd11105d	-0.035415996
52	0x3b896ae2	0.0041936496
53	0xbd00a53c	-0.03140758
54	0xba38db86	-0.00070517545
55	0x3c50b006	0.01273728
56	0xbd057f71	-0.03259224
57	0xbb97de75	-0.0046346732
58	0x3e5ff4d4	0.21870738
59	0x3e38f686	0.18062791
60	0xbcc06592	-0.023485932
61	0xbd2213a4	-0.039569512
62	0x3e68a963	0.22720866
63	0xbd1be7a9	-0.038062725
64	0xbd2e27e0	-0.042518497
65	0xbcb0e56d	-0.021593774
66	0x3b8ace36	0.004236008
67	0xbc025020	-0.007953674
68	0xbd71d13c	-0.059037432
69	0x3dcab07f	0.09896945
70	0xbd36cf8e	-0.044631533
71	0x3d86b82c	0.06578097
72	0x3e518c17	0.20463596
73	0x3e4d8ea4	0.20073944
74	0x3d3ec6cc	0.046576306
75	0x3ba5d715	0.00506104
76	0x3ab752e3	0.0013986494
77	0x3e7b5b23	0.24546485
78	0x3cbb6243	0.022874003
79	0x3e6ea49c	0.23304981
80	0x3d536950	0.051614106
81	0x3e543db5	0.20726664
82	0x3dea0a54	0.11427751
83	0xbaf398a4	-0.0018584919
84	0xbbd30c97	-0.00644071
85	0x3cd2358a	0.025660295
86	0x3e6f67ca	0.23379436
87	0x3e113c54	0.1418317
88	0x3cf47c70	0.029844493
89	0xbc803f5e	-0.015655216
90	0x3d646b37	0.05576631
91	0x3e3c6807	0.18399058
92	0x3d65b503	0.05608083
93	0x3e157a63	0.14597468
94	0x3ba6c67b	0.0050895787
95	0x3e062940	0.13101673
96	0xbd1b6c6c	-0.037945196
97	0x3dfd0b72	0.12355699
98	0x3e275890	0.16342378
99	0x3dd2fdc4	0.10302308
100	0x3e10bef8	0.14135349
101	0xbca7525a	-0.02042501
102	0x3e40b558	0.18819177
103	0xbd274d3d	-0.040845145
104	0x3e4c89b7	0.19974409
105	0x3d90ee57	0.0707671
106	0x3cb5e549	0.022204058
107	0x3cf24fde	0.0295791
108	0x3c0b3a7b	0.00849783
109	0x3e5b0a28	0.21390593
110	0x3e1b1e27	0.15148221
111	0x3d2263c0	0.03964591
112	0x3e3d0ae2	0.18461183
113	0x3e511be0	0.2042079
114	0xbc814970	-0.015782088
115	0x3e387ac7	0.18015586
116	0x3c7044ed	0.014664871
117	0xbc8adf85	-0.016952286
118	0xbc5d1616	-0.013494035
119	0xbce3cb37	-0.027806861
120	0x3e0778a1	0.1322961
121	0x3def3711	0.11680425
122	0x3a3acab1	0.000712554
123	0x3e3d08c9	0.18460383
124	0x3dacc395	0.08435742
125	0x3e0153cc	0.12629622
126	0xbd187cfb	-0.037228566
127	0x3b62c4fb	0.0034602273

layer4.weight f4 [6, 128]
0	0x3d66ce33	0.05634899
1	0xbd59bf5e	-0.053161018
2	0xbe8af2ec	-0.2713846
3	0xbe50f456	-0.20405707
4	0xbf5253fd	-0.82159406
5	0x3e1ec704	0.15505606
6	0xbe0cc2a9	-0.13746132
7	0x3e1699ff	0.14707182
8	0xbba5b136	-0.0050565256
9	0x3d06c3c7	0.03290155
10	0x3dc155ab	0.09440168
11	0xbe18e38a	-0.1493055
12	0xbdfb45e4	-0.1226919
13	0xbbe7569c	-0.007059885
14	0xbd255588	-0.040364772
15	0x3e62c560	0.22145605
16	0x3e438582	0.19093898
17	0x3e3c40c9	0.18384089
18	0xbd0e1154	-0.034684494
19	0x3f0fb593	0.56136435
20	0x3ec1e340	0.3786869
21	0xbe04dd44	-0.12975031
22	0xbe166de3	-0.14690356
23	0xbe1e2a2d	-0.15445776
24	0xbde561a3	-0.11200263
25	0xbdd4fdbb	-0.10399958
26	0x3e3fde0d	0.1873705
27	0xbe21d82e	-0.15805122
28	0xbe0d0790	-0.13772416
29	0x3f98968b	1.1920942
30	0xbc95ead0	-0.018300444
31	0x3e7db4fb	0.2477607
32	0x3f144919	0.5792404
33	0x3fc9b13b	1.5757211
34	0x3da75b34	0.081716925
35	0xbe26178a	-0.16219917
36	0x3da4cb15	0.08046547
37	0x3f4eb950	0.80751514
38	0x40078814	2.1176805
39	0x3fad2672	1.3527358
40	0x3eeb6bbb	0.4598063
41	0x3cedb557	0.029017134
42	0x3d681938	0.056664675
43	0x3ea69be4	0.3254081
44	0xbd05952b	-0.03261296
45	0x3fc83a62	1.5642817
46	0x3fcc1dde	1.5946615
47	0x3ed30b58	0.41219592
48	0xbdf5d3d3	-0.12003293
49	0xbde5fef8	-0.11230272
50	0xbce688cb	-0.0281414
51	0x3e2fa66b	0.17153327
52	0xbea937a0	-0.3305025
53	0x3f999887	1.1999673
54	0x3fb35ba9	1.4012347
55	0x3d68d17d	0.05684041
56	0x3f385900	0.72010803
57	0xbe21b6d0	-0.15792394
58	0xbe1fcfd0	-0.15606618
59	0xbe19e0e3	-0.15027194
60	0x3ca5f8ec	0.020260297
61	0x3f6304d2	0.8867923
62	0xbdd170de	-0.10226606
63	0x3d581772	0.052756734
64	0x3edf435c	0.4360608
65	0xbcd92cb1	-0.026510568
66	0x3ecfe771	0.40606263
67	0x3f45ef3d	0.77318174
68	0x3f80958c	1.0045638
69	0xbce9ac29	-0.028524475
70	0x3f39310f	0.7234048
71	0x3fc1cbd6	1.5140331
72	0xbe21fab4	-0.15818292
73	0xbdc57d12	-0.09642996
74	0x3fc54ff8	1.541503
75	0x3f18d7eb	0.59704465
76	0x3d2516dd	0.040305007
77	0xbe5d9fc1	-0.21642973
78	0x3cd1f686	0.025630247
79	0xbe28c5ed	-0.16481753
80	0xbda5a854	-0.08088747
81	0xbe1940c3	-0.14966111
82	0xbe18318d	-0.14862652
83	0x3e28937b	0.1646251
84	0x3ebe7052	0.3719507
85	0x3cae1974	0.021252371
86	0xbe2a3d02	-0.16624835
87	0xbe2288bc	-0.15872473
88	0x40076637	2.1156137
89	0xbe0c3811	-0.13693263
90	0x400a9e02	2.165894
91	0xbe1c21b9	-0.15247239
92	0x3fd29c4c	1.6453948
93	0xbcdd9dac	-0.027052723
94	0x3daf7677	0.08567517
95	0xbe1388ad	-0.14407606
96	0x3e246f9c	0.160582
97	0x3b5b466b	0.003345872
98	0xbe1b111c	-0.15143245
99	0xbe612a26	-0.21988735
100	0xbe4a60a3	-0.19763426
101	0xbcd82aaa	-0.026387531
102	0xbdaa2e5d	-0.08309624
103	0xbde55127	-0.11197119
104	0xbe3a7144	-0.1820727
105	0xbdbe7310	-0.0929929
106	0x3fce1435	1.6099917
107	0xbe283b05	-0.16428764
108	0x3d258a30	0.04041499
109	0xbe1ca7ea	-0.15298429
110	0xbe068763	-0.13137583
111	0xbd8d5e76	-0.069027826
112	0xbe08b3ec	-0.13349885
113	0xbe0f35f0	-0.1398542
114	0x3fba7048	1.4565516
115	0xbe13abc1	-0.14420988
116	0x3e7dbb7b	0.2477855
117	0x3f81d0ac	1.0141807
118	0x3f8b5fa3	1.0888561
119	0x3d002a19	0.031290147
120	0xbe17a62b	-0.14809482
121	0x3ccff0f0	0.025383443
122	0x3f098989	0.53725487
123	0xbe34d368	-0.1765877
124	0xbe1cd6d7	-0.1531633
125	0xbdb851a6	-0.08999948
126	0x3cd63876	0.02614997
127	0x3c6fd0d8	0.014637195
128	0x3d8c0bd0	0.068381906
129	0xbe3cfb88	-0.18455327
130	0x401337bf	2.3002775
131	0xbe66fac4	-0.22556597
132	0xbfc4592e	-1.5339715
133	0x3e3c6d96	0.18401179
134	0x3cf329d8	0.029683039
135	0x3e08e54d	0.13368721
136	0xbe5eca40	-0.2175684
137	0xbd20803a	-0.039184786
138	0xbd2719ea	-0.040796198
139	0x3c0b373b	0.008497055
140	0xbd4e2a58	-0.05033335
141	0x3ca8fe8e	0.020629194
142	0x3d536232	0.05160732
143	0x3e0c43bb	0.13697712
144	0x3e9caaf1	0.30599168
145	0xbc9aa6ab	-0.018878302
146	0xbdb751fe	-0.08951186
147	0x3fdf4fa9	1.7446185
148	0xbe7bb1af	-0.245795
149	0xbe4dd829	-0.2010199
150	0xbe1a33d5	-0.15058835
151	0xbe2794cb	-0.16365354
152	0xbda6c3d7	-0.08142822
153	0xbe4df24a	-0.20111957
154	0x3e3c1494	0.18367225
155	0xbe42e075	-0.19030936
156	0xbdcdb2cf	-0.10043871
157	0x3f70c826	0.940554
158	0x3dbbabc7	0.09163623
159	0x3ea0e590	0.31425142
160	0x3fb65826	1.4245651
161	0x3fe96cd1	1.8236333
162	0x3d85b034	0.06527749
163	0xbe250f2f	-0.16119073
164	0x3e040d1d	0.12895627
165	0x3f06ff80	0.5273361
166	0x40057b38	2.0856457
167	0x3fbcf0c8	1.4760981
168	0x3f2da647	0.67831844
169	0x3e141d8b	0.14464395
170	0xbe574286	-0.2102147
171	0x3df630fc	0.12021062
172	0x3dd9412f	0.10608136
173	0x3f896cc1	1.0736314
174	0x3fec14d3	1.8443855
175	0x3f04a99e	0.51821315
176	0xbb37fe4c	-0.0028075157
177	0xbe47c8b9	-0.19510163
178	0x3ea142bf	0.31496236
179	0x3e2cd337	0.16877447
180	0xbf5777eb	-0.84167355
181	0x3f942561	1.1573907
182	0x3fd5d21a	1.6704743
183	0x3c3d4577	0.011552206
184	0x3e534f3b	0.20635693
185	0x3f844479	1.0333396
186	0xbe0bf8ba	-0.136691
187	0xbd55163e	-0.052023165
188	0x3e26fb52	0.16306809
189	0x3fae116a	1.3599064
190	0xbe430fed	-0.19049044
191	0xbcfba51d	-0.03071838
192	0x3e99c570	0.30033445
193	0x3d02384e	0.031791978
194	0xbe191c5d	-0.14952226
195	0x3f82dcbd	1.0223614
196	0x3f8f633f	1.1202163
197	0xbecdb316	-0.40175694
198	0x3f5f81fb	0.8730771
199	0x40404d41	3.0047152
200	0xbe5952b3	-0.21222953
201	0xbdcbaa49	-0.09944589
202	0x3fd418b9	1.6570045
203	0x3e652f33	0.22381286
204	0x3c9fde31	0.019515129
205	0xbe9a7331	-0.3016601
206	0xbca8009e	-0.020508107
207	0xbd7acf1c	-0.06123267
208	0x3d85c9b5	0.06532613
209	0xbde9f6b7	-0.1142401
210	0xbe04b1c0	-0.12958431
211	0x3db2c699	0.08729286
212	0x3f869c78	1.05165
213	0x3d3768d3	0.044777703
214	0xbdee2a23	-0.11629131
215	0xbda09b10	-0.07842076
216	0xbf83dfa7	-1.0302628
217	0x3da2f3dc	0.07956669
218	0x3fd63793	1.673571
219	0x3bb818dd	0.0056181983
220	0x3fc2f799	1.5231811
221	0x3d1834b9	0.037159655
222	0xbe147faa	-0.14501825
223	0xbd83d2dd	-0.06436703
224	0xbfba3a33	-1.4549011
225	0xbe51883d	-0.20462127
226	0xbe542aea	-0.20719495
227	0xbe971a9f	-0.29512498
228	0xbdbf244b	-0.09333094
229	0x3cdf9e70	0.027297229
230	0xbe6a45ec	-0.22878236
231	0xbfa701e3	-1.3047451
232	0xbe2b6ad5	-0.16739972
233	0x3ee2168d	0.4415783
234	0x3fcb0bf1	1.5863019
235	0x3bb28ae1	0.0054486846
236	0x3b1729f7	0.0023065784
237	0xbdc9df38	-0.09857029
238	0x3ce8834b	0.028382918
239	0xbe131773	-0.14364414
240	0xbdb3bc2d	-0.08776126
241	0xbe0dea1b	-0.13858835
242	0x3fb03bb0	1.3768215
243	0xbdc937f1	-0.09825123
244	0xbd30adb8	-0.04313442
245	0x3fb69d72	1.4266798
246	0x3f764d80	0.96212006
247	0xbc52fbe5	-0.012877439
248	0x3ca9e4f4	0.020739056
249	0xbd95a086	-0.07306008
250	0x3f4f7ccd	0.81049806
251	0xbe342a3b	-0.17594235
252	0xbd1b5b10	-0.03792864
253	0x3c3c07bd	0.011476454
254	0x3aa2b965	0.0012414871
255	0x3cfe44a1	0.031038584

layer4.bias f4 [6]
0	0xbe73b116	-0.23798022
1	0xbe0ef47d	-0.13960452
2	0xbe02a2c9	-0.1275741
3	0xbd027b9f	-0.031856176
4	0x3be077e2	0.0068502286
5	0xbe123882	-0.14279369
