Assignment4/policy_net_final.pth (torch, 475960 bytes, 8 tensors)

layer1.weight f4 [256, 72]
-0.08666571 0.0254894 -0.0804683 0.018707715 -0.01517163 -0.077079505 -0.05388107 0.013919131
0.032040432 0.0340766 0.13945259 0.05655027 -0.1883142 0.053371783 -0.037601113 0.08648844
-0.007892428 0.08019588 0.23011833 -0.14422478 0.006485981 0.023040248 -0.027316011 0.04058457
-0.16382422 0.0022067714 -0.07560104 0.077976644 0.12533425 -0.033856254 0.047839053 -0.039019722
-0.07104866 0.17485045 0.101428755 0.06045235 0.13096012 0.0063389675 -0.021846475 0.2588401
0.064978585 0.043483563 -0.04762386 0.27807918 -0.36661184 0.07956967 0.021950504 -0.04727098
-0.064376846 0.13850924 -0.16255209 0.13826138 -0.027065707 -0.09286747 0.18533728 -0.050824597
-0.037991226 -0.07755848 0.24274322 0.20131403 -0.09403214 -0.18160217 0.040131934 0.06567459
0.09481169 -0.07234658 0.10034464 0.027531683 -0.023926524 -0.13029505 -0.016215522 0.019489061
0.1653885 0.24900207 0.23510721 0.1461058 -0.06046114 -0.034954973 0.07935195 0.0052654915
-0.070857435 0.08726525 -0.2015616 -0.028262572 -0.01850979 -0.036206517 0.08716257 0.028141096
-0.27318603 0.10049063 0.07264391 0.12217098 0.03527336 0.048981562 -0.25479233 -0.066984415
0.10387765 -0.016891656 -0.07440262 0.005361034 -0.05856562 -0.033151533 0.008920825 0.03812568
0.060677793 0.10572786 0.0064312224 0.11412149 -0.028708184 -0.0051095854 0.028614577 0.10013087
0.12248682 -0.02264549 0.058358397 -0.003872059 -0.025064444 0.01773375 0.06671902 -0.039018556
0.0071042753 0.04929447 0.051326532 -0.023500906 0.17485312 0.12575695 0.038258106 -0.11461026
0.14560144 0.022768965 0.123028524 -0.047580287 0.03288089 0.0075602285 0.07247533 0.20166653
-0.035023354 0.03250821 -0.008162023 -0.030687986 -0.06986832 -0.006353289 -0.025073903 -0.05918431
0.028207252 0.060957633 0.015878577 0.039147176 0.060256906 -0.09996775 0.036703087 0.10359034
0.056368005 -0.015498455 -0.06398289 0.009362069 0.07271452 0.07474873 -0.014008225 0.01661821
-0.014885448 -0.08281976 0.08613647 -0.088340655 0.06514077 0.01825471 -0.055953328 0.033847857
-0.21809717 -0.08806273 0.07880518 -0.0408466 0.12910098 0.020723645 0.0785469 0.17199838
0.05073945 0.010403838 -0.084665775 -0.0027256894 0.08876015 0.014456497 0.041585855 0.02300763
0.006583686 0.08615681 -0.050509043 0.00060119614 0.07210051 -0.10141955 0.037098352 -0.092284836
-0.06578157 0.06087279 0.0036234618 -0.040620655 0.06561471 0.052215684 0.123808146 0.09233534
0.14389026 -0.0057139657 -0.19718735 -0.26250052 0.021380842 -0.10200707 -0.30488026 -0.13048841
0.0732807 0.16900122 0.08955762 0.07088128 0.13686296 0.10913877 -0.16638531 -0.22265512
0.08686258 0.08006725 -0.0238659 0.07883823 -0.09714381 -0.16230884 -0.078800246 -0.029025845
0.13353872 -0.041189454 -0.0023408139 -0.15838726 -0.08005298 -0.21181922 0.04151102 0.15601365
-0.227178 -0.0043202667 -0.027776334 -0.009253252 -0.42888403 0.042752996 -0.054772984 -0.15805702
0.14382362 0.045209713 -0.2968815 -0.28372812 0.12569255 -0.3404082 -0.04057308 0.015854783
0.16142927 -0.30893564 -0.38584676 -0.45355326 0.009937922 0.080835514 0.07045006 0.0005676516
00000000: cb7d b1bd 25cf d03c 90cc a4bd ec40 993c
00000010: 6e92 78bc dcdb 9dbd 66b2 5cbd 110d 643c
00000020: d43c 033d e893 0b3d a9cc 0e3e 42a1 673d
00000030: 70d5 40be 5f9c 5a3d a003 1abd da20 b13d
00000040: 3e4f 01bc bd3d a43d 24a4 6b3e a9af 13be
00000050: 5a88 d43b e7be bc3c d4c5 dfbc 023c 263d
00000060: 89c1 27be 7b9f 103b b8d4 9abd 38b2 9f3d
00000070: 9f57 003e dbac 0abd e2f2 433d 25d3 1fbd
00000080: f681 91bd ff0b 333e e1b9 cf3d e29c 773d
00000090: 691a 063e 1db7 cf3b 61f7 b2bc b186 843e
000000a0: 7e13 853d d21b 323d 3d11 43bd 6560 8e3e
000000b0: 8cb4 bbbe 6cf5 a23d 8bd1 b33c 379f 41bd
000000c0: 02d8 83bd 5ed5 0d3e 0e74 26be 6494 0d3e
000000d0: e7b8 ddbc 4d31 bebd 0ec9 3d3e 742d 50bd
000000e0: b09c 1bbd fbd6 9ebd ae91 783e 4425 4e3e
000000f0: ec93 c0bd ebf5 39be 6261 243d 6680 863d
00000100: a22c c23d 722a 94bd 7e81 cd3d 208a e13c
00000110: 8f01 c4bc 116c 05be 6ad6 84bc 86a7 9f3c
00000120: 9a5b 293e 66fa 7e3e f2bf 703e c29c 153e
00000130: 1aa6 77bd f22c 0fbd 4683 a23d 258a ac3b
00000140: b41d 91bd 20b8 b23d 2a66 4ebe e986 e7bc
00000150: d8a1 97bc 494d 14bd 4a82 b23d 2888 e63c
00000160: 0adf 8bbe 08ce cd3d 55c6 943d c734 fa3d
00000170: cc7a 103d e4a0 483d 2474 82be 202f 89bd
00000180: cebd d43d 5f60 8abc 6760 98bd 9dab af3b
00000190: 81e2 6fbd e7c9 07bd a728 123c ac29 1c3d
000001a0: 4789 783d d987 d83d 01bd d23b 87b8 e93d
000001b0: 6d2d ebbc 4f6e a7bb 1e69 ea3c 6a11 cd3d
000001c0: 5fda fa3d 0983 b9bc 3709 6f3d 5fc2 7dbb
000001d0: f353 cdbc 5f46 913c fba3 883d ecd1 1fbd
000001e0: fbca e83b 00e9 493d c53b 523d f984 c0bc
000001f0: b20c 333e 6ec6 003e 88b4 1c3d c9b8 eabd
00000200: 8b18 153e fb85 ba3c 61f6 fb3d 8ce3 42bd
00000210: 1dae 063d cbbb f73b f26d 943d ac81 4e3e
00000220: a674 0fbd 5427 053d 01ba 05bc 5f65 fbbc
00000230: 1f17 8fbd 402f d0bb c967 cdbc 3f6b 72bd
00000240: e512 e73c b6ae 793d ca13 823c ca58 203d
00000250: f2cf 763d e4bb ccbd fa55 163d 2c27 d43d
00000260: 23e2 663d 3bed 7dbc 7609 83bd 5d63 193c
00000270: 5aeb 943d dd15 993d c182 65bc ea22 883c
00000280: 18e2 73bc 689d a9bd 5168 b03d f2eb b4bd
00000290: 8668 853d e78a 953c 512f 65bd 0da4 0a3d
000002a0: dd54 5fbe 3c5a b4bd 9c64 a13d c44e 27bd
000002b0: 0c33 043e a2c4 a93c 32dd a03d 5820 303e
000002c0: 2bd4 4f3d dc74 2a3c 4065 adbd 7ba1 32bb
000002d0: e2c7 b53d f1da 6c3c ee55 2a3d 7f7a bc3c
000002e0: f6bb d73b fb72 b03d 92e2 4ebd 9799 1d3a
000002f0: 6fa9 933d 0eb5 cfbd 71f4 173d d5ff bcbd
00000300: 7db8 86bd bf55 793d 9a77 6d3b d861 26bd
00000310: 0161 863d 1de0 553d 208f fd3d 501a bd3d
00000320: f857 133e 383c bbbb 7beb 49be 7866 86be
00000330: e026 af3c 15e9 d0bd 4419 9cbe c19e 05be
00000340: 3114 963d a80e 2d3e fc69 b73d 342a 913d
00000350: ce25 0c3e 2684 df3d e960 2abe b4ff 63be
00000360: 02e5 b13d 4cfa a33d 6b82 c3bc f075 a13d
00000370: 55f3 c6bd 4a34 26be 0662 a1bd 9cc7 edbc
00000380: 60be 083e 46b6 28bd 5768 19bb 4530 22be
00000390: d1f2 a3bd 23e7 58be 7607 2a3d 0bc2 1f3e
000003a0: 5aa1 68be 0691 8dbb 328b e3bc f49a 17bc
000003b0: b096 dbbe c41d 2f3d a359 60bd b3d9 21be
000003c0: 8046 133e d22d 393d da00 98be d044 91be
000003d0: 8cb5 003e fc49 aebe f52f 26bd e4e1 813c
000003e0: b74d 253e d02c 9ebe b58d c5be 2238 e8be
000003f0: aad2 223c 178d a53d 1f48 903d 74ce 143a

layer1.bias f4 [256]
0.110002905 -0.1713621 0.08635869 0.009402934 -0.098098695 0.035222996 -0.029339995 0.17173965
-0.11211358 0.21706584 -0.003441121 0.07734679 -0.049156904 0.058421887 -0.11294822 -0.07369269
0.1015516 0.13136065 0.06180788 0.09121901 0.08800173 -0.04313672 0.00045572963 -0.060563363
-0.027281526 -0.021233967 0.13872118 0.087962426 0.13075267 0.008964597 -0.02225976 0.053824212
0.075061895 0.03707594 0.20469661 0.0652798 -0.1106533 0.17876671 -0.192085 0.14155193
0.09713605 -0.0098046325 0.26196083 -0.11498614 0.15176816 0.13436918 0.1558764 -0.06889662
0.07245119 0.10210444 0.21842968 0.009397248 0.13358441 -0.119641945 0.007574827 0.044813253
0.18871498 -0.11714433 -0.054403204 -0.029299852 -0.03188608 0.1583838 -0.027512236 0.08509364
-0.103827566 0.07506395 0.12561406 0.17997175 0.10784287 0.055056106 0.033803653 0.067852184
-0.05494308 0.19807653 0.09324949 -0.014251521 -0.07857403 -0.032454457 0.0008154532 -0.05149356
0.19538674 -0.02453653 -0.038839355 0.063467115 0.041772146 0.055843156 -0.023547187 -0.1433688
0.116597906 0.020256994 -0.115102164 0.2190615 0.014688589 0.23863456 0.03547166 0.04467521
0.16873997 0.16926754 -0.09131977 -0.05696958 0.13994583 0.036227606 0.011949331 -0.07934956
0.1381234 0.06141262 -0.048563734 0.16106763 0.06694992 0.096479975 0.07040915 0.17122672
0.08852314 0.19356672 0.025010316 0.08990191 -0.12996037 -0.1434455 -0.036063895 0.17344749
0.119832836 0.07998018 0.006628951 0.049884114 0.22685689 0.07417397 0.04895017 -0.041497342
0.009028293 -0.17002034 0.14255592 0.09700236 0.15819302 0.054919858 -0.15025865 -0.056603428
0.033200614 0.17622434 0.18337178 0.111225285 0.028775135 0.09057814 0.074241824 -0.13561235
-0.07635652 -0.006337724 0.057264086 -0.16354035 0.16930185 0.017562736 0.12452188 -0.056646887
0.09517597 0.048589993 -0.022196725 0.13631672 -0.15056443 0.012322813 0.064154916 0.11095096
-0.07363414 0.085466705 -0.10891087 0.063211255 0.014634893 0.09338373 0.11852557 0.023280172
-0.06312551 0.21118738 0.21362242 0.016134653 -0.0033658568 0.17379555 0.22098088 -0.044270817
-0.17714508 0.19922449 0.20620576 0.2578747 0.045041077 -0.048844796 0.09750897 -0.097944655
-0.072964616 -0.023348428 -0.03227458 -0.009367482 0.1529834 0.258598 -0.0918315 0.12614833
-0.07270452 -0.098872155 -0.11270993 0.036916807 0.2410483 -0.06859039 0.019570502 0.1923217
0.0247379 0.18701133 -0.05059606 -0.08704059 0.16581643 0.07188301 0.21714363 -0.1016029
0.054334737 -0.062063184 0.16262427 0.044825222 0.08142305 -0.092607915 -0.061381083 0.1397012
0.056065757 0.06713835 0.22887766 0.086771026 -0.0066905385 0.080405034 0.10384072 -0.071360454
0.11957927 -0.057990234 0.16762073 -0.21037742 0.061096717 0.04493911 -0.06456622 -0.10314481
0.020830695 -0.039596952 -0.079008535 -0.080771446 0.024057055 0.19765267 0.11478267 -0.17668448
-0.027326506 -0.014871927 -0.13218395 -0.055589993 0.06399324 -0.10354667 -0.039276775 0.092305936
0.13925725 -0.14591749 -0.11453225 0.13536714 0.12996614 -0.08270616 -0.076447584 -0.024198126
00000000: 3449 e13d 8c79 2fbe d3dc b03d c40e 1a3c
00000010: f8e7 c8bd fd45 103d 6e5a f0bc 85dc 2f3e
00000020: ce9b e5bd 8246 5e3e 6e84 61bb fe67 9e3d
00000030: c058 49bd ca4b 6f3d 6551 e7bd 31ec 96bd
00000040: 49fa cf3d 6883 063e 422a 7d3d 08d1 ba3d
00000050: 403a b43d 21b0 30bd ffee ee39 4a11 78bd
00000060: 827d dfbc dbf2 adbc ed0c 0e3e a525 b43d
00000070: 07e4 053e 3fe0 123c 1a5a b6bc c776 5c3d
00000080: 0dba 993d f1dc 173d fd9b 513e 6ab1 853d
00000090: 339e e2bd 9f0e 373e eeb1 44be fdf2 103e
000000a0: 44ef c63d 9ca3 20bc bb1f 863e da7d ebbd
000000b0: 1d69 1b3e 1398 093e 109e 1f3e ac19 8dbd
000000c0: 4a61 943d 221c d13d 08ac 5f3e eaf6 193c
000000d0: 5aca 083e d606 f5bd 4136 f83b 1a8e 373d
000000e0: 803e 413e 5ee9 efbd e5d5 5ebd 3e06 f0bc
000000f0: fa9a 02bd 5d2f 223e 5761 e1bc 9345 ae3d
00000100: 8ca3 d4bd 21bb 993d f9a0 003e 844a 383e
00000110: b9dc dc3d 8382 613d b375 0a3d 16f6 8a3d
00000120: ff0b 61bd 93d4 4a3e 97f9 be3d 367f 69bc
00000130: 6ceb a0bd f7ee 04bd 23c4 553a e9ea 52bd
00000140: 7613 483e d500 c9bc 0416 1fbd 0cfb 813d
00000150: 4519 2b3d cbbb 643d 08e6 c0bc 45cf 12be
00000160: e2ca ee3d fff1 a53c afba ebbd a851 603e
00000170: 68a8 703c 9e5c 743e bb4a 113d 5afd 363d
00000180: 2cca 2c3e 7854 2d3e dc05 bbbd ef58 69bd
00000190: f64d 0f3e 6663 143d 20c7 433c 0682 a2bd
000001a0: 3870 0d3e cd8b 7b3d c4ea 46bd eaee 243e
000001b0: 0a1d 893d 4b97 c53d ac32 903d 0f56 2f3e
000001c0: 9f4b b53d 5b36 463e 6fe2 cc3c 7e1e b83d
000001d0: 5514 05be 61e3 12be bcb7 13bd 389c 313e
000001e0: eb6a f53d a6cc a33d ac37 d93b 4953 4c3d
000001f0: 2c4d 683e 86e8 973d f97f 483d 1ef9 29bd
00000200: 68eb 133c d019 2ebe 2efa 113e 2ca9 c63d
00000210: 5afd 213e a5f3 603d 67dd 19be ffd8 67bd
00000220: 5efd 073d 2774 343e d0c5 3b3e 15ca e33d
00000230: d5b9 eb3c 0881 b93d 190c 983d f7dd 0abe
00000240: cf60 9cbd afac cfbb bf8d 6a3d 1f77 27be
00000250: 775d 2d3e badf 8f3c 5405 ff3d 9106 68bd
00000260: 9eeb c23d 4d06 473d e8d5 b5bc 9c96 0b3e
00000270: 902d 1abe a0e5 493c a763 833d 423a e33d
00000280: 7fcd 96bd 2b09 af3d aa0c dfbd e774 813d
00000290: 31c7 6f3c f83f bf3d 89bd f23d 0fb6 be3c
000002a0: f347 81bd 8141 583e d6bf 5a3e d22c 843c
000002b0: b595 5cbb 76f7 313e d048 623e 5155 35bd
000002c0: 8565 35be 8101 4c3e 9a27 533e 2708 843e
000002d0: fe7c 383d 7b11 48bd c8b2 c73d 3597 c8bd
000002e0: 796e 95bd 3445 bfbc 5a32 04bd 117a 19bc
000002f0: aea7 1c3e f566 843e 2712 bcbd 072d 013e
00000300: 1be6 94bd 7c7d cabd 77d4 e6bd 1436 173d
00000310: 5ed5 763e 1e79 8cbd 5152 a03c fbef 443e
00000320: 23a7 ca3c e67f 3f3e d03d 4fbd 5642 b2bd
00000330: c8cb 293e 6637 933d e65a 5e3e 2e15 d0bd
00000340: 1a8e 5e3d f735 7ebd fa86 263e a79a 373d
00000350: 21c1 a63d 38a9 bdbd bb6a 7bbd d50d 0f3e
00000360: 35a5 653d d57f 893d e85e 6a3e 02b5 b13d
00000370: 4e3c dbbb 65ab a43d 72aa d43d 6e25 92bd
00000380: fae5 f43d 2b87 6dbd c5a4 2b3e 2e6d 57be
00000390: 8d40 7a3d 1212 383d 4b3b 84bd 963d d3bd
000003a0: 22a5 aa3c 6a30 22bd 3acf a1bd 806b a5bd
000003b0: 4d13 c53c 7665 4a3e 2d13 eb3d c7ec 34be
000003c0: d6db dfbc 62a9 73bc 3b5b 07be 55b2 63bd
000003d0: e30e 833d 4710 d4bd afe0 20bd e50a bd3d
000003e0: 7499 0e3e 656b 15be e28f eabd af9d 0a3e
000003f0: d815 053e d961 a9bd 8d90 9cbd 263b c6bc

layer2.weight f4 [256, 256]
-0.04718472 -0.053015303 0.07328938 -0.096460216 0.108023405 0.19584979 0.12617324 0.09863066
0.0361407 -0.10944773 -0.10307469 -0.044420626 -0.1538355 0.051177587 0.10445294 -0.0057628714
-0.053394735 0.0028496275 0.10026633 -0.1218519 -0.14196807 -0.112256475 -0.016591936 0.20729607
0.026947062 -0.03372427 0.098041706 -0.073629804 -0.05591793 -0.07790182 -0.12250751 0.034692157
0.05728884 -0.089131385 -0.056093987 -0.084179156 0.021383373 -0.027202863 -0.012827588 -0.14735569
0.07641629 -0.0026190956 0.15463357 0.02774427 0.03509086 0.004334812 -0.008590843 -0.03006214
0.123207465 -0.07875978 0.11555886 -0.06346474 0.10258156 -0.013255763 0.05122824 -0.031496685
0.09860297 -0.023517668 -0.08421919 0.22867367 0.0057606623 0.26185486 0.048769556 0.11315067
0.011917584 0.16074753 -0.09333952 0.012863239 -0.081389844 -0.033829335 -0.030456537 0.052425195
-0.07429977 -0.12535703 -0.14358857 -0.13990144 0.02023399 0.01540939 0.024899906 0.019900573
0.19526869 -0.013038528 -0.0486151 0.0914 -0.09452583 -0.0066049807 -0.0005354921 -0.01497791
0.13977945 -0.006229561 -0.08609006 -0.07804168 -0.024410019 0.073767334 0.23372303 -0.021875748
-0.21579002 0.049621794 0.019479096 0.05401696 -0.06134771 -0.13483351 -0.026469974 -0.11861696
0.021778485 0.123047985 -0.0624868 -0.08177032 0.0970593 -0.13387047 0.040286142 -0.004106977
0.12587328 0.1616088 -0.16906378 0.11241756 0.10357841 -0.02054769 0.00667921 -0.05843783
0.23957673 -0.09574363 -0.07358288 0.19586161 0.043636713 0.012773941 0.011276482 -0.030765586
-0.061649468 -0.04409018 0.08572724 0.077050485 0.083630696 -0.22336708 -0.020059405 -0.037264373
0.014727021 0.105750404 -0.046983495 -0.021980308 0.18279597 -0.27214193 -0.1683627 0.020083053
0.08681003 0.1424255 -0.0041299234 -0.12982175 0.04942219 -0.173053 0.07978148 0.11416971
0.039560582 0.090422645 -0.113138445 0.006132955 -0.067914546 -0.081172846 -0.12915106 -0.103198
-0.032857046 0.1157183 -0.10304218 0.084480904 0.03982091 0.045177408 0.16619572 0.20564047
0.0022767344 -0.24470918 -0.26804668 0.12493726 0.089904316 -0.12994997 0.1530841 -0.2608099
-0.10216814 0.19277976 0.051875815 0.08375232 0.15460625 0.022967283 0.0102684405 0.12211767
-0.10558185 0.08161035 0.009230649 -0.04756013 0.100637935 0.09093066 -0.0075649405 0.0317926
0.096149094 -0.03513222 0.008771427 -0.10742808 0.054051396 0.022434583 0.0028490387 0.0074647656
-0.005740549 -0.05655358 -0.058853924 -0.04765031 0.024771947 0.093932346 0.11125584 -0.064409435
-0.0964392 0.08707818 -0.12197547 -0.0855519 -0.18483283 0.09493867 0.18391728 -0.00893362
0.046774875 0.07730015 -0.0060022203 0.11296108 -0.1304126 0.025335755 0.07069921 0.081238806
-0.06750791 -0.011822339 0.09763129 -0.07038851 0.16304915 0.04415057 -0.06972735 -0.21056613
0.05162691 -0.067742705 0.06499226 0.14412454 -0.03515958 -0.14123589 -0.120819256 -0.055331513
0.018654061 0.20986056 -0.00907547 0.051542703 0.04697118 0.22446084 -0.11570685 -0.07121687
0.04571769 0.07249485 0.059681106 -0.12476485 0.1136212 0.084187046 -0.03337551 -0.071290135
00000000: c444 41bd 9326 59bd be18 963d ef8c c5bd
00000010: 603b dd3d d98c 483e 8f33 013e dffe c93d
00000020: 4508 143d 2226 e0bd d318 d3bd 67f2 35bd
00000030: 0e87 1dbe 979f 513d 6ceb d53d 78d6 bcbb
00000040: 70b4 5abd d1c0 3a3b 6f58 cd3d 7d8d f9bd
00000050: 1460 11be b9e6 e5bd d0eb 87bc 6c45 543e
00000060: 16c0 dc3c 7622 0abd 17ca c83d 39cb 96bd
00000070: 330a 65bd fd8a 9fbd 38e5 fabd 5d19 0e3d
00000080: b4a7 6a3d 848a b6bd cfc2 65bd 1f66 acbd
00000090: 2f2c af3c 8ad8 debc ce2a 52bc 69e4 16be
000000a0: 2580 9c3d 22a5 2bbb 4358 1e3e f447 e33c
000000b0: 6fbb 0f3d 0a0b 8e3b 9bc0 0cbc e144 f6bc
000000c0: 3254 fc3d cf4c a1bd 20aa ec3d cdf9 81bd
000000d0: 4816 d23d b32e 59bc b4d4 513d ab02 01bd
000000e0: 5bf0 c93d 20a8 c0bc 1c7b acbd 6e29 6a3e
000000f0: f0c3 bc3b d711 863e 96c2 473d 8abb e73d
00000100: f841 433c 009b 243e ca28 bfbd 56c0 523c
00000110: b8af a6bd a190 0abd fd7f f9bc cdbb 563d
00000120: 7a2a 98bd 985d 00be e208 13be 5342 0fbe
00000130: c1c1 a53c ab77 7c3c e3fa cb3c 8706 a33c
00000140: 84f4 473e 8d9f 55bc a120 47bd ec2f bb3d
00000150: c296 c1bd 986e d8bb 4460 0cba e865 75bc
00000160: 5822 0f3e 5821 ccbb fc4f b0bd 51d4 9fbd
00000170: 85f7 c7bc 5413 973d 1755 6f3e c534 b3bc
00000180: 0ff8 5cbe 3940 4b3d a092 9f3c e340 5d3d
00000190: bd47 7bbd cc11 0abe 8fd7 d8bc 73ed f2bd
000001a0: cb68 b23c 9500 fc3d 29f2 7fbd 3377 a7bd
000001b0: 07c7 c63d 5715 09be 1503 253d d293 86bb
000001c0: ede4 003e c77c 253e 0e1f 2dbe 2d3b e63d
000001d0: eb20 d43d a153 a8bc 46dd da3b 825c 6fbd
000001e0: 9a53 753e 3c15 c4bd 9fb2 96bd f28f 483e
000001f0: 69bc 323d cb49 513c fec0 383c 1c08 fcbc
00000200: 2784 7cbd e897 34bd c391 af3d a5cc 9d3d
00000210: 9246 ab3d 57ba 64be 9f53 a4bc 87a2 18bd
00000220: 9a49 713c ab93 d83d c471 40bd 0c10 b4bc
00000230: de2e 3b3e 3056 8bbe 4667 2cbe 3785 a43c
00000240: 75c9 b13d fed7 113e 4f54 87bb feef 04be
00000250: ec6e 4a3d ce34 31be 7964 a33d cfd1 e93d
00000260: 470a 223d 822f b93d 21b5 e7bd f5f6 c83b
00000270: c816 8bbd f33d a6bd 2d40 04be 7959 d3bd
00000280: 1c95 06bd b7fd ec3d c707 d3bd 5304 ad3d
00000290: 401b 233d f20b 393d 362f 2a3e 6a93 523e
000002a0: 4435 153b 0b95 7abe 6a3d 89be 1bdf ff3d
000002b0: c11f b83d 9b11 05be 14c2 1c3e e088 85be
000002c0: 883d d1bd 0f68 453e bc7b 543d 5686 ab3d
000002d0: 1a51 1e3e e225 bc3c f63c 283c d418 fa3d
000002e0: 4c3b d8bd 5423 a73d 263c 173c 69ce 42bd
000002f0: 431b ce3d db39 ba3d 52e3 f7bb f538 023d
00000300: d1e9 c43d cde6 0fbd 08b6 0f3c 4103 dcbd
00000310: ff64 5d3d bbc8 b73c f0b6 3a3b fe9a f43b
00000320: 371b bcbb baa4 67bd d010 71bd f92c 43bd
00000330: 8aee ca3c 9a5f c03d 1ada e33d 18e9 83bd
00000340: ea81 c5bd 0b56 b23d 46ce f9bd d635 afbd
00000350: d144 3dbe 356f c23d d054 3c3e 515e 12bc
00000360: 0397 3f3d 8b4f 9e3d 46ae c4bb 2458 e73d
00000370: e18a 05be ee8c cf3c bfca 903d 8860 a63d
00000380: 9641 8abd 7cb2 41bc eaf2 c73d da27 90bd
00000390: 5bf6 263e 3ad7 343d 36cd 8ebd a69e 57be
000003a0: bd76 533d b0bc 8abd a91a 853d 6295 133e
000003b0: 7e03 10bd 24a0 10be 1670 f7bd 4ca3 62bd
000003c0: 67d0 983c b0e5 563e 48b1 14bc 711e 533d
000003d0: da64 403d 10d9 653e b7f7 ecbd 26da 91bd
000003e0: 7942 3b3d 2e78 943d 2d74 743d b784 ffbd
000003f0: 3bb2 e83d 426a ac3d c2b4 08bd 9000 92bd

layer2.bias f4 [256]
0.12832418 0.07856364 -0.08246859 0.026229164 0.027360875 0.008845438 0.10585321 -0.02662637
-0.00014466252 0.027231019 -0.02028473 0.013242054 0.16019045 0.051159773 0.2268007 0.07020566
0.12796244 0.039908428 -0.023459641 -0.068747066 -0.037964024 0.050969586 0.080694035 0.009785689
0.0539881 0.001205396 0.19572306 0.043197524 0.032540046 0.06308777 0.1923779 0.01712131
0.102888845 -0.008537727 -0.02895712 0.08786398 0.25097543 0.007860959 0.06595001 -0.002200494
0.08445428 0.0068846922 0.13683671 0.01548335 0.20616727 -0.0781947 0.15493649 -0.008475033
0.046794493 0.08010097 0.014282294 0.011554589 -0.023826683 0.087872766 0.03348526 0.020647775
0.12025892 -0.021948444 0.17604654 -0.027227066 0.024573866 0.27735513 0.04210325 0.14919613
0.059010003 0.075961806 -0.066330865 0.049500205 -0.057021875 0.119392835 -0.061347086 0.040683758
0.008257607 0.2738807 0.052076295 0.20954867 0.03670852 -0.006751077 0.19323874 0.00366395
0.025359983 0.028119704 0.12829638 0.060874987 -0.15241165 0.022022543 -0.01716233 0.2898911
-0.014026186 0.091152355 -0.010514227 0.26562923 0.24492608 -0.052495074 0.06662688 0.19815004
0.2318594 0.23251532 0.020936122 0.25792456 0.0118152 0.05599096 0.18211645 0.021208534
0.029159565 0.011741955 0.12042709 0.010467915 0.044976342 0.019645624 -0.034957208 0.0197036
-0.15040497 0.05493368 0.05172896 0.029613843 0.23792969 -0.0035055543 0.012976045 0.073945835
0.14396165 -0.021751938 -0.0012436401 -0.01578606 0.15360965 0.031030308 0.022309912 0.035772324
0.17858 -0.016149245 0.205515 -0.04813275 0.0865985 0.03929337 0.008362478 0.1377274
0.04389588 0.097832434 0.028083088 0.27786955 0.035848416 0.0004905341 -0.01161119 0.02134211
0.2572085 0.22744513 0.04223441 -0.21654582 0.0011133202 0.13775338 0.07086002 0.20447545
-0.0100224335 0.06648466 0.0029388 0.21276702 0.043788955 0.042883586 0.019533288 -0.0062326523
0.123643234 -0.019866515 0.05895601 0.15891697 -0.017797539 0.02370287 0.14277637 0.0071719135
0.19411284 0.2085976 0.016058294 0.054139897 0.030612115 0.028796565 0.058930933 0.11415693
0.031009566 -0.0030458902 0.040255662 0.2429259 0.05655058 0.14598587 0.018614637 0.0839243
0.29456803 0.115987755 0.057969972 0.17987347 0.23527236 0.056511562 -0.0016876619 0.059793483
-0.021067876 0.1974463 0.036798682 -0.0825957 0.0388651 0.08428309 0.016209656 -0.029801521
0.17539208 0.019636896 0.0068903347 0.24674545 0.09390111 0.26156706 0.033897284 0.061555576
0.14722382 0.1432489 0.022659278 0.035425562 0.13859093 0.12210767 0.027561402 0.3170674
-0.023292892 0.18636264 0.26319432 0.05208954 -0.023898795 0.18059957 0.0281112 0.06745155
0.034348045 -0.017170837 0.13796437 0.1564451 0.12560625 0.0012660089 -0.028605804 0.03225252
0.13502273 0.055006146 0.16583984 -0.0015540582 -0.027800238 0.23062001 0.24407485 0.15254281
0.1142861 0.22881478 0.25790292 0.087964244 0.0105238035 0.0033176302 0.030400261 0.18358
0.08488703 0.0804475 0.268446 0.057313368 0.030093798 -0.01003816 -0.002846609 -0.013832184
00000000: 6a67 033e f9e5 a03d 4be5 a8bd 8bde d63c
00000010: ea23 e03c 75ec 103c 91c9 d83d 8c1f dabc
00000020: 8db0 17b9 9613 df3c 292c a6bc 33f5 583c
00000030: f708 243e e98c 513d 713e 683e fcc7 8f3d
00000040: 9608 033e 0577 233d 6f2e c0bc 43cb 8cbd
00000050: 2a80 1bbd 7cc5 503d ea42 a53d 2854 203c
00000060: a022 5d3d 61fe 9d3a a06b 483e e3ef 303d
00000070: b648 053d 2934 813d b6fe 443e fd41 8c3c
00000080: 63b7 d23d d3e1 0bbc 7b37 edbc 08f2 b33d
00000090: da7f 803e 40cb 003c cd10 873d 2a36 10bb
000000a0: 5ef6 ac3d fc98 e13b ec1e 0c3e e0ad 7d3c
000000b0: 831d 533e 8b24 a0bd aca7 1e3e ddda 0abc
000000c0: 95ab 3f3d fa0b a43d 4800 6a3c 754f 3d3c
000000d0: 2d30 c3bc a3f6 b33d d727 093d 8625 a93c
000000e0: 4f4a f63d 39cd b3bc 8b45 343e 4c0b dfbc
000000f0: 224f c93c 7e01 8e3e 7574 2c3d dfc6 183e
00000100: 79b4 713d dd91 9b3d 7ad8 87bd bac0 4a3d
00000110: c58f 69bd 3b84 f43d 1547 7bbd 03a4 263d
00000120: ea4a 073c 173a 8c3e f44d 553d ed93 563e
00000130: ac5b 163d 2338 ddbb 60e0 453e e11e 703b
00000140: bdbf cf3c 4b5b e63c 2060 033e 0d58 793d
00000150: cd11 1cbe 9f68 b43c 0498 8cbc 9b6c 943e
00000160: 17ce 65bc 16ae ba3d dd43 2cbc 8e00 883e
00000170: e7cd 7a3e 1305 57bd ac73 883d d8e7 4a3e
00000180: 8d6c 6d3e 7f18 6e3e 3b82 ab3c b00e 843e
00000190: 8a94 413c c756 653d bc7c 3a3e 85bd ad3c
000001a0: 0ae0 ee3c 5461 403c 7aa2 f63d 9e81 2b3c
000001b0: 1d39 383d dcef a03c 4a2f 0fbd 7269 a13c
000001c0: c303 1abe 2302 613d bfe1 533d bb98 f23c
000001d0: d7a3 733e 71bd 65bb 7a99 543c ea70 973d
000001e0: af6a 133e 1f31 b2bc a301 a3ba c451 81bc
000001f0: d94b 1d3e 4633 fe3c 47c3 b63c 0086 123d
00000200: addd 363e 6c4b 84bc 8672 523e d926 45bd
00000210: 8e5a b13d 16f2 203d c602 093c 6908 0d3e
00000220: 2bcc 333d 5f5c c83d 810e e63c eb44 8e3e
00000230: cad5 123d 3097 003a dc3c 3ebc a6d5 ae3c
00000240: d5b0 833e 60e7 683e fdfd 2c3d 30be 5dbe
00000250: d4ec 913a 390f 0d3e 0f1f 913d 0362 513e
00000260: 2235 24bc 1c29 883d e298 403b 99df 593e
00000270: 0c5c 333d b3a6 2f3d 4604 a03c 473b ccbb
00000280: aa38 fd3d 1abf a2bc db7b 713d 21bb 223e
00000290: 25cc 91bc 852c c23c f833 123e 5f02 eb3b
000002a0: 84c5 463e 9c9a 553e af8c 833c ccc1 5d3d
000002b0: 42c6 fa3c c6e6 eb3c 9061 713d 1ccb e93d
000002c0: c607 fe3c 8f9d 47bb 1fe3 243d 91c1 783e
000002d0: 95a1 673d 527d 153e b97d 983c 81e0 ab3d
000002e0: 9fd1 963e fd8a ed3d ec71 6d3d c030 383e
000002f0: 3deb 703e ab78 673d 8934 ddba 03ea 743d
00000300: 8a96 acbc 5d2f 4a3e 37ba 163d ef27 a9bd
00000310: 0331 1f3d 9d9c ac3d 1dca 843c 5222 f4bc
00000320: fb99 333e 8edd a03c 51c8 e13b d7aa 7c3e
00000330: 3a4f c03d 1eec 853e e1d7 0a3d b321 7c3d
00000340: d7c1 163e d7af 123e f39f b93c 651a 113d
00000350: c8ea 0d3e 9613 fa3d 73c8 e13c a956 a23e
00000360: bcd0 bebc d9d5 3e3e 68c1 863e d75b 553d
00000370: 68c7 c3bc 18ef 383e 7649 e63c 0a24 8a3d
00000380: 89b0 0c3d dba9 8cbc 8846 0d3e 2533 203e
00000390: ed9e 003e 36f0 a53a b856 eabc 381b 043d
000003a0: 6643 0a3e 204e 613d ebd1 293e 8ab1 cbba
000003b0: 53bd e3bc a727 6c3e c2ee 793e 2f34 1c3e
000003c0: d50e ea3d 6c4e 6a3e da0b 843e 9926 b43d
000003d0: 086c 2c3c 996c 593b f809 f93c 65fc 3b3e
000003e0: 40d9 ad3d a9c1 a43d c171 893e 6cc1 6a3d
000003f0: 4587 f63c 1877 24bc 2d8e 3abb 62a0 62bc

layer3.weight f4 [128, 256]
-0.013815448 0.019217554 0.004031532 -0.06080416 -0.13644272 0.011203152 -0.022814194 -0.056881223
-0.018537737 -0.12700473 0.027199268 -0.000992865 0.034594133 0.03059214 0.006593044 -0.08774527
-0.048387285 -0.006021746 0.040230732 -0.0877916 -0.09233664 0.042599145 0.012495326 -0.07319069
-0.095189676 0.04450586 -0.0034178877 -0.04771091 -0.07231044 -0.14415094 -0.018508468 -0.0590996
-0.04755696 0.015452629 -0.078450546 0.013527075 -0.0026861744 -0.044850167 -0.000837406 0.03905558
-0.073317125 -0.11726085 -0.018281598 -0.13117588 -0.09820382 -0.023538833 -0.025715 -0.14626998
0.11052459 0.08030193 -0.042616736 0.090081744 -0.030133951 -0.101462856 -0.14074086 -0.080696665
-0.040468942 0.07245396 0.008284936 0.06250394 0.09973197 0.013165325 -0.14633104 0.015984237
-0.12979048 -0.12703075 -0.031554047 0.032706656 -0.020945 0.015070292 -0.015512045 0.004444097
-0.14066537 -0.040900037 -0.012554539 -0.029382605 0.014196691 0.048547205 0.0103015695 -0.1574332
-0.037028477 0.0029656808 -0.061355967 -0.042799816 0.108379334 -0.11104393 -0.03897836 -0.029580781
0.007684265 0.040940084 -0.19618231 0.0030747277 -0.022259934 0.0046841474 -0.09866579 -0.0062635047
0.017005205 -0.011957851 -0.02015451 -0.010732599 -0.10331651 -0.079693116 0.011828938 0.027193751
-0.007135495 -0.052703995 0.046052884 -0.18971433 -0.13201658 -0.078298636 -0.008215614 -0.04430258
0.20441931 0.05385135 -0.07239272 0.019226719 0.017357195 -0.004999282 -0.013500266 -0.15114406
-0.03238357 0.0032692724 -0.07239401 -0.0024637524 -0.038532425 -0.0031408318 -0.008680847 -0.108235225
0.028665638 -0.012669558 0.010210423 0.016433531 0.025967337 -0.08653219 -0.086623035 -0.057768535
0.020062752 -0.1042604 -0.10516687 -0.033177566 -0.011524287 0.04901863 -0.041876804 -0.0020375021
-0.015915155 0.03681919 0.03866235 -0.08059021 -0.042105194 -0.023805887 -0.09280823 -0.023469238
0.06024928 0.054928105 -0.06488912 0.03249774 -0.07120106 0.036268853 -0.17364787 0.07339568
-0.01745604 -0.004311158 0.01350158 0.010649646 0.046799935 -0.06442007 0.034192294 -0.104720905
0.023877252 0.01607787 0.036012165 -0.10063529 -0.056400012 -0.0165824 -0.102485284 -0.010375544
0.013645595 -0.08069014 0.046880957 0.019680046 -0.040602993 0.0094012 -0.06282113 0.024152614
0.005788996 -0.02063176 -0.12124745 0.0012423526 -0.015190937 0.049291935 -0.0051336694 -0.10290602
-0.0014109336 0.011769435 -0.016701499 -0.061113454 -0.027087804 0.03692784 -0.08151126 0.08576322
0.011991481 -0.027701763 -0.060463347 -0.004256579 0.04741691 -0.025953155 -0.15807727 -0.04557473
0.019393554 -0.058303725 -0.06214985 -0.07695223 -0.1530127 -0.037007306 -0.05008381 -0.041287288
0.012654189 -0.019587262 -0.028804002 0.030311828 0.035882186 -0.03420966 -0.11812035 0.04950173
-0.066161156 -0.012169739 -0.012478821 -0.019675042 -0.011460377 0.020422855 -0.0072209346 -0.08411349
-0.023629414 0.029603774 0.020735612 -0.104425654 0.012148975 0.028813625 0.022984358 0.0049863597
-0.028256273 -0.016334804 -0.04080595 -0.099537015 -0.03797032 0.021149872 -0.19107535 -0.005114316
-0.006650163 -0.0953827 -0.019998705 -0.10711103 0.048701007 -0.09171768 0.014396409 0.021343078
00000000: 305a 62bc 226e 9d3c f11a 843b c80d 79bd
00000010: a4b7 0bbe 6d8d 373c d5e4 babc 49fc 68bd
00000020: 74dc 97bc 870d 02be 00d1 de3c 0523 82ba
00000030: 94b2 0d3d 5e9c fa3c 760a d83b cbb3 b3bd
00000040: bf31 46bd 1152 c5bb fbc8 243d 15cc b3bd
00000050: fe1a bdbd 717c 2e3d 32b9 4c3c 00e5 95bd
00000060: cef2 c2bd c74b 363d a4fe 5fbb 846c 43bd
00000070: 7f17 94bd 4e9c 13be 129f 97bc 6c12 72bd
00000080: 16cb 42bd 062d 7d3c aeaa a0bd aaa0 5d3c
00000090: 870a 30bb cfb4 37bd 5e85 5bba bef8 1f3d
000000a0: 4a27 96bd 7526 f0bd 4ac3 95bc f852 06be
000000b0: 161f c9bd 83d4 c0bc 44a8 d2bc ccc7 15be
000000c0: b75a e23d 5775 a43d e38e 2ebd c77c b83d
000000d0: 7adb f6bc c2cb cfbd 5f1e 10be 4b44 a5bd
000000e0: c3c2 25bd be62 943d 8abd 073c 1102 803d
000000f0: 4640 cc3d 60b3 573c ced7 15be 60f1 823c
00000100: cce7 04be 5914 02be d13e 01bd 6af7 053d
00000110: d994 abbc 63e9 763c 3b26 7ebc ca9f 913b
00000120: 950a 10be cc86 27bd 8eb1 4dbc cab3 f0bc
00000130: 3d99 683c 6fd9 463d eac7 283c 2b36 21be
00000140: 2cab 17bd de5b 423b 6550 7bbd dc4e 2fbd
00000150: fcf5 dd3d 006b e3bd c6a7 1fbd 6553 f2bc
00000160: 49cc fb3b cab0 273d 04e4 48be 5f81 493b
00000170: 775a b6bc 7a7d 993b 4a11 cabd 163e cdbb
00000180: 804e 8b3c ddea 43bc 121b a5bc c8d7 2fbc
00000190: 9b97 d3bd 2536 a3bd 29ce 413c 6ec5 de3c
000001a0: dfd0 e9bb 25e0 57bd f3a1 3c3d 7944 42be
000001b0: 5b2f 07be 095b a0bd c89a 06bc 9f76 35bd
000001c0: 4c53 513e 3c93 5c3d a242 94bd 5a81 9d3c
000001d0: ad30 8e3c 04d1 a3bb 3830 5dbc 82c5 1abe
000001e0: a2a4 04bd 4a41 563b 5043 94bd e876 21bb
000001f0: 2dd4 1dbd 6ad6 4dbb 1c3a 0ebc 6eaa ddbd
00000200: 33d4 ea3c fa93 4fbc 9e49 273c 9d9f 863c
00000210: 74b9 d43c ca37 b1bd 6b67 b1bd b39e 6cbd
00000220: a45a a43c 7a86 d5bd ba61 d7bd 33e5 07bd
00000230: 5dd0 3cbc c2c7 483d 0387 2bbd 9d87 05bb
00000240: 8060 82bc b8cf 163d 6a5c 1e3d 7b0c a5bd
00000250: 7f76 2cbd 9004 c3bc 3e12 bebd 8f42 c0bc
00000260: f3c7 763d 4bfc 603d 96e4 84bd 5a1c 053d
00000270: ddd1 91bd a68e 143d bfd0 31be 7950 963d
00000280: f8ff 8ebc 9d44 8dbb bb35 5d3c da7b 2e3c
00000290: 4ab1 3f3d abee 83bd 380d 0c3d ea77 d6bd
000002a0: 3a9a c33c bdb5 833c 7e81 133d e019 cebd
000002b0: b303 67bd d0d7 87bc cee3 d1bd 30fe 29bc
000002c0: c691 5f3c df40 a5bd 3f06 403d 0c38 a13c
000002d0: 534f 26bd 7e07 1a3c 5da8 80bd b4db c53c
000002e0: 9eb1 bd3b f003 a9bc 9550 f8bd 70d6 a23a
000002f0: 68e3 78bc 57e6 493d 5738 a8bb 64c0 d2bd
00000300: 13ef b8ba 97d4 403c 95d1 88bc 1a52 7abd
00000310: 3ee7 ddbc a641 173d 60ef a6bd a1a4 af3d
00000320: eb77 443c cfee e2bc 6aa8 77bd c67a 8bbb
00000330: 3c38 423d b69b d4bc 02df 21be 91ac 3abd
00000340: 3bdf 9e3c e3cf 6ebd d790 7ebd 2199 9dbd
00000350: 5caf 1cbe f994 17bd ae24 4dbd dc1c 29bd
00000360: 8453 4f3c 7775 a0bc 5ff6 ebbc 8350 f83c
00000370: 33f9 123d 6e1f 0cbd 15e9 f1bd 53c2 4a3d
00000380: 807f 87bd 9663 47bc f873 4cbc 8e2d a1bc
00000390: 4ec4 3bbc d54d a73c 979d ecbb b243 acbd
000003a0: 7992 c1bc 9d83 f23c bbdd a93c 1edd d5bd
000003b0: 7f0c 473c 8d0a ec3c b149 bc3c 9e64 a33b
000003c0: b379 e7bc 91d0 85bc 2424 27bd 10da cbbd
000003d0: c486 1bbd 7f42 ad3c 42a9 43be fe95 a7bb
000003e0: 9ce9 d9bb 0158 c3bd 53d4 a3bc 075d dbbd
000003f0: b57a 473d 7bd6 bbbd eade 6b3c aed7 ae3c

layer3.bias f4 [128]
-0.012743131 0.24630867 -0.018282194 0.24401876 0.029372623 -0.019563636 0.08036523 -0.10791475
0.23792376 0.016765045 -0.012836301 0.18982732 0.21999618 0.036582872 -0.03151949 -0.011203512
0.04120913 -0.04500688 0.17018838 0.030254848 -0.06111248 0.2575632 0.25035724 0.25759813
0.22963841 0.28829858 -0.065495126 0.23232189 0.21401288 -0.00871831 -0.07823294 -0.045852285
-0.09187877 -0.03154173 0.03392355 0.19114944 -0.040864427 -0.019401541 0.045821737 0.010054509
0.0018344556 -0.098562345 0.21745493 0.021101896 0.1241907 -0.014398424 0.011988255 -0.30200076
0.14827618 0.19522999 -0.03424576 -0.051490817 -0.02034525 -0.025903324 0.003042035 0.011858707
-0.025063448 -0.013246429 0.24779424 0.2079704 -0.010607862 -0.03411641 0.25612083 -0.035431776
-0.032928508 -0.020108912 0.007463624 -0.002061152 -0.046965268 0.1339305 -0.03822185 0.0658769
0.23521937 0.23171484 0.043871574 0.003680796 0.001301759 0.2712632 0.021295434 0.26174888
0.048052315 0.2386855 0.13527448 -0.001019893 -0.007477487 0.023889882 0.2659888 0.1692135
0.028363276 -0.0072458023 0.05619567 0.2133172 0.051817875 0.17584777 0.019612303 0.1523403
-0.052771594 0.14983037 0.19073504 0.12326453 0.16983789 -0.019007396 0.21884252 -0.04059086
0.23186222 0.063094996 0.019869717 0.03983722 0.007905866 0.23793323 0.18197523 0.053882245
0.2183219 0.23377804 -0.011982017 0.20728424 0.0106205065 -0.009256077 -0.008596766 -0.025888367
0.16611981 0.15076706 0.006651191 0.21252982 0.10333638 0.15626425 -0.0346305 0.0032214574
00000000: 91c8 50bc 5738 7c3e 8ac4 95bc 0ee0 793e
00000010: db9e f03c eb43 a0bc 8796 a43d 6902 ddbd
00000020: 49a2 733e d956 893c 594f 52bc 1862 423e
00000030: ae46 613e ecd7 153d 951a 01bd ef8e 37bc
00000040: e8ca 283d 2259 38bd dd45 2e3e 04d9 f73c
00000050: 1451 7abd 53df 833e d32e 803e e7e3 833e
00000060: 5526 6b3e df9b 933e 4f22 86bd cae5 6d3e
00000070: 3126 5b3e 3ed7 0ebc 9738 a0bd 9bcf 3bbd
00000080: f02a bcbd e731 01bd 6cf3 0a3d aebc 433e
00000090: 7561 27bd fbef 9ebc 93af 3b3d abbb 243c
000000a0: 1e72 f03a 0edb c9bd 81ac 5e3e e2dd ac3c
000000b0: b257 fe3d 5ee7 6bbc 636a 443c d89f 9abe
000000c0: b6d5 173e 5fea 473e 4845 0cbd 09e8 52bd
000000d0: 15ab a6bc 3533 d4bc e15c 473b 064b 423c
000000e0: dc51 cdbc 8d07 59bc c6bd 7d3e 31f6 543e
000000f0: 99cc 2dbc a6bd 0bbd 4522 833e e920 11bd
00000100: 0be0 06bd 72bb a4bc 6a91 f43b 6414 07bb
00000110: a75e 40bd 1425 093e 848e 1cbd 78ea 863d
00000120: 59dd 703e a846 6d3e aeb2 333d 8239 713b
00000130: c99f aa3a 03e3 8a3e c373 ae3c f303 863e
00000140: 81d2 443d f969 743e 6585 0a3e eead 85ba
00000150: b505 f5bb b7b4 c33c af2f 883e 4e46 2d3e
00000160: 1a5a e83c 326e edbb 6e2d 663d d36f 5a3e
00000170: fb3e 543d 7011 343e fba9 a03c 18ff 1b3e
00000180: 0727 58bd 226d 193e 0c50 433e 1d72 fc3d
00000190: fce9 2d3e 66b5 9bbc 4118 603e 9a42 26bd
000001a0: 4a6d 6d3e f337 813d d1c5 a23c 5a2c 233d
000001b0: 9b87 013c c5a4 733e b757 3a3e a1b3 5c3d
000001c0: c78f 5f3e 8363 6f3e 3950 44bc 5242 543e
000001d0: a201 2e3c cda6 17bc 73d9 0cbc d713 d4bc
000001e0: 501b 2a3e ae62 1a3e 3cf2 d93b 6ba1 593e
000001f0: 06a2 d33d bc03 203e b6d8 0dbd 161f 533b

layer4.weight f4 [6, 128]
0.052462984 -0.057136957 -0.24104396 -0.20581971 -1.2059456 0.15091012 -0.13909373 0.13334422
-0.019645372 0.030573493 0.14267626 -0.15327233 -0.12383989 -0.0065730503 -0.037573654 0.21207133
0.18376544 0.19163768 -0.038830392 0.39072746 0.20741288 -0.13186042 -0.1445092 -0.1546005
-0.114406206 -0.10566491 0.18517673 -0.1576096 -0.14681716 1.3438617 -0.015508447 0.27876753
0.46639007 1.689458 0.07604493 -0.15945062 0.07181722 0.7927481 2.1893468 1.4239459
0.4268943 0.07165937 0.045907717 0.42793468 -0.028783409 1.6698979 1.7379684 0.45252836
-0.11753392 -0.11477116 -0.057321824 0.17982906 -0.43685412 1.3603905 1.526594 0.052921638
0.87560207 -0.21930967 -0.15229748 -0.14548789 0.056727305 0.8429816 -0.10347351 0.04911333
0.492108 -0.024679422 0.55772763 0.8639615 1.0990591 -0.050748006 0.8317382 1.7641593
-0.15674536 -0.09898116 1.6017317 0.7641675 0.037519325 -0.2111121 0.023861982 -0.1590101
-0.07529087 -0.14810665 -0.14994912 0.14265947 0.2570481 0.01979596 -0.16075431 -0.16347383
2.4743207 -0.13406184 2.3292646 -0.14654587 1.7222229 -0.029374229 0.073832385 -0.14554507
0.095505565 -0.005418177 -0.1490295 -0.22484535 -0.20372377 -0.024565173 -0.09538938 -0.4342746
-0.17983381 -0.30119997 1.6695195 -0.17043966 0.037619308 -0.15320103 -0.13394152 -0.07544204
-0.12942137 -0.13825835 1.5457911 -0.1450261 0.30843902 1.0809312 1.1687517 0.029126862
-0.14124851 0.022277242 0.61714387 -0.18685718 -0.15339912 -0.08945122 0.02434458 0.013626159
0.0636462 -0.17888342 2.458247 -0.22406968 -1.6433889 0.16539298 0.025375986 0.13432544
-0.21150607 -0.036500942 -0.04632276 -0.0006046991 -0.05224713 0.019193016 0.048046015 0.124781534
0.353539 -0.028834734 -0.08905105 1.8966519 -0.35997686 -0.19621699 -0.14756265 -0.15998828
-0.08276382 -0.19520012 0.1715449 -0.18439648 -0.10141812 1.062468 0.08657061 0.3176457
1.6980493 1.9598731 0.060651228 -0.15710795 0.116708666 0.43083185 2.0716112 1.6579769
0.7642999 0.16128065 -0.20309448 0.15644635 0.10132929 1.1503527 2.0533693 0.5207711
-0.00735378 -0.1893499 0.34683263 0.15166159 -0.98789614 1.3992563 1.7622396 0.010758057
0.17058517 1.1532718 -0.13514207 -0.054650072 0.16874921 1.458774 -0.18403919 -0.028590826
0.31125042 0.029572932 -0.15737134 1.1487015 1.3170317 -0.393837 0.99564195 2.970277
-0.2059752 -0.09957321 1.7597294 0.25654685 0.01818023 -0.28913894 -0.019082937 -0.064018354
0.060696512 -0.11496337 -0.12533154 0.065294735 1.0847552 0.041675467 -0.1162583 -0.07818545
-1.2652566 0.081786625 1.6210874 -0.0010255259 1.5396035 0.0279961 -0.13216098 -0.06440622
-1.5576464 -0.19750878 -0.2008642 -0.28220797 -0.09381985 0.025412709 -0.22614671 -1.4316555
-0.16421899 0.5224602 1.6413417 0.013332002 0.00214622 -0.09931797 0.020229263 -0.13514322
-0.08865733 -0.13726479 1.5026584 -0.0984095 -0.09116441 1.6070855 1.1135135 -0.011988855
0.013487775 -0.07365566 0.94345397 -0.17334038 -0.03907852 0.00617229 0.0011560749 0.028892195
00000000: 6de3 563d 7108 6abd 3ad4 76be 67c2 52be
00000010: 6d5c 9abf 2f88 1a3e 966e 0ebe 638b 083e
00000020: 55ef a0bc 4375 fa3c ba19 123e 6cf3 1cbe
00000030: c59f fdbd be62 d7bb d5e6 19bd 3a29 593e
00000040: 022d 3c3e ab3c 443e 9e0c 1fbd 6e0d c83e
00000050: 0b64 543e 6b06 07be 38fa 13be 984f 1ebe
00000060: cd4d eabd d866 d8bd f89e 3d3e 6964 21be
00000070: 3d57 16be a903 ac3f 2417 7ebc 9eba 8e3e
00000080: aeca ee3e 2940 d83f 72bd 9b3d 0647 23be
00000090: e814 933d 8af1 4a3f 421e 0c40 dc43 b63f
000000a0: e491 da3e 26c2 923d bb09 3c3d 411a db3e
000000b0: 2fcb ebbc 37bf d53f c075 de3f ccb1 e73e
000000c0: a0b5 f0bd 240d ebbd 4aca 6abd 1c25 383e
000000d0: 58ab dfbe 4721 ae3f 6f67 c33f 5cc4 583d
000000e0: 7527 603f b792 60be dff3 1bbe c7fa 14be
000000f0: e45a 683d a4cd 573f ebe9 d3bd 0f2b 493d
00000100: 94f5 fb3e 802c cabc 3dc7 0e3f 952c 5d3f
00000110: f8ad 8c3f 24dd 4fbd cbec 543f f9cf e13f
00000120: db81 20be a2b6 cabd 8b05 cd3f 7ba0 433f
00000130: ddad 193d c52d 58be 347a c33c 8bd3 22be
00000140: 1a32 9abd 45a9 17be 438c 19be 5315 123e
00000150: cf9b 833e 232b a23c c79c 24be af65 27be
00000160: 455b 1e40 8247 09be ac12 1540 1f10 16be
00000170: cd71 dc3f 39a2 f0bc 6f35 973d c409 15be
00000180: 6c98 c33d f78a b1bb 309b 18be dc3d 66be
00000190: f79c 50be e73c c9bc 825b c3bd 3e59 debe
000001a0: 5b26 38be e236 9abe d1b2 d53f bc87 2ebe
000001b0: b416 1a3d bbe0 1cbe f727 09be 5b81 9abd
000001c0: 0987 04be 9993 0dbe 7cdc c53f b981 14be
000001d0: b8eb 9d3e f45b 8a3f a899 953f 759b ee3c
000001e0: 73a3 10be c37e b63c 24fd 1d3f 7d57 3fbe
000001f0: a914 1dbe 3432 b7bd 496e c73c 4140 5f3c
00000200: f058 823d 372d 37be eb53 1d40 8672 65be
00000210: 915a d2bf c75c 293e 4de1 cf3c 9c8c 093e
00000220: 0c95 58be 0382 15bd efbc 3dbd ab84 1eba
00000230: 1601 56bd ac3a 9d3c e6cb 443d 768d ff3d
00000240: 1003 b53e d236 ecbc 6660 b6bd 7dc5 f23f
00000250: e34e b8be 1bed 48be aa1a 17be f8d3 23be
00000260: 1480 a9bd 8ae2 47be 77a9 2f3e 6ed2 3cbe
00000270: 4eb4 cfbd f4fe 873f ef4b b13d 75a2 a23e
00000280: ae59 d93f 1fdd fa3f 6c6d 783d e8e0 20be
00000290: f404 ef3d fe95 dc3e 4795 0440 9638 d43f
000002a0: 29a9 433f c126 253e 00f8 4fbe 7933 203e
000002b0: bb85 cf3d c23e 933f 676a 0340 4151 053f
000002c0: faf7 f0bb f1e4 41be 0c94 b13e 2d4d 1b3e
000002d0: c3e6 7cbf d51a b33f 1191 e13f 9042 303c
000002e0: e1ad 2e3e 699e 933f af62 0abe c1d8 5fbd
000002f0: 98cc 2c3e 1bb9 ba3f c574 3cbe 4f37 eabc
00000300: 375c 9f3e ef42 f23c f425 21be a708 933f
00000310: 7f94 a83f 01a5 c9be 64e2 7e3f 0519 3e40
00000320: 2aeb 52be 0aed cbbd d03e e13f 1c5a 833e
00000330: b5ee 943c 050a 94be d253 9cbc 0e1c 83bd
00000340: e89c 783d ea71 ebbd e956 00be 3fb9 853d
00000350: 42d9 8a3f e5b3 2a3d d518 eebd b11f a0bd
00000360: eef3 a1bf bf7f a73d cb7f cf3f f06a 86ba
00000370: ba11 c53f 1458 e53c 3555 07be 69e7 83bd
00000380: f560 c7bf be3f 4abe 58af 4dbe 907d 90be
00000390: 9f24 c0bd 502e d03c 0193 67be 7d40 b7bf
000003a0: 0629 28be f4bf 053f 7c17 d23f 786e 5a3c
000003b0: 99a7 0c3b 3867 cbbd d7b7 a53c fc62 0abe
000003c0: f991 b5bd 248f 0cbe 1c57 c03f ec8a c9bd
000003d0: 68b4 babd fab4 cd3f 9c87 8e3f e76c 44bc
000003e0: d4fb 5c3c c7d8 96bd 3386 713f 2480 31be
000003f0: cc10 20bd ec40 ca3b 7087 973a 53af ec3c

layer4.bias f4 [6]
-0.25977623 -0.16322842 -0.16320404 -0.041555457 -0.018769732 -0.14207892
00000000: 6401 85be 5a25 27be f61e 27be 0e36 2abd
00000010: fbc2 99bc 237d 11be
