Assignment3/policy_net_max.pth (torch, 75470 bytes, 6 tensors)

layer1.weight f4 [128, 8]
00000000: 9db2 fe3e e641 36bd c56b 023f cb6f 0b3f
00000010: a817 44be 234a a13e 68cc e8bd 36ae d73d
00000020: fa92 c53e 5a66 3f3e ed36 d4bd 6977 8f3e
00000030: 38b5 bb3d b5a5 a5be 0f2b 143e 1260 30bf
00000040: 6864 b73e 038a afbe 1eda 843c 35e5 1abf
00000050: 841d 4a3e 27ba 1f3f a3df 5e3d 41bd 32bf
00000060: 5571 e93a 3988 c13e 91cf a13e 54d2 793c
00000070: 7c27 36bd 08ae 3bbf d93d 73be 56ff 2bbe
00000080: d355 62bd b9e6 353e e3d1 df3d d07f c9be
00000090: 99ba c2be 6b82 3c3e 6b09 363e b0f5 f53d
000000a0: 69aa 5b3d 9103 1ebe f9a0 27bd 5e7e 963f
000000b0: 3751 eebd 551e 4cbd a476 be3e f529 ca3e
000000c0: dea7 c4bd 539c 8bbc c3fd d33d 5273 16bc
000000d0: 8ab7 53bf 9b2a 89be a9a4 883e b711 5a3d
000000e0: 4b43 1cbe dcb9 ae3e a073 c73e df80 cebe
000000f0: 65ef b9be 92cf 283e 2bdc 843e 9b46 dabe
00000100: 04d3 00bd d645 72bb c742 c8bc 3095 ae3c
00000110: c355 fa3f 5dc9 293b d3a5 103e 6b96 c93d
00000120: 4fd1 553e a67d 9e3e d268 42bb a047 f3be
00000130: ddff abbe b422 5ebe a726 58bf e985 27bf
00000140: 03ac e43d 235a 6dbb b416 e5bd c215 953d
00000150: 0484 c3bf 4e7d e2bd e8d6 633e 73b4 1d3e
00000160: 7269 ddbd 89fe 903e 3621 9dbd fe02 2abe
00000170: e959 c1bd 6fa7 53bd 2929 4b3e 00ae a23e
00000180: e1e5 63be 9715 0d3e 0200 933c 8755 bb3e
00000190: b469 e63e 9f15 f13e 5074 833e e5a7 793e
000001a0: 1131 af3d ceba bb3e 257a a7be 199a 12be
000001b0: 3368 a4be c11f 71be b130 38bf 5921 99be
000001c0: 9e7c e93d 20e5 4fbe daba cdbe ea3d 68be
000001d0: 69fb 083f 56af 8e3d df11 153e 7869 d6be
000001e0: 1245 83be f28e da3e 10b9 793e c35e 12bf
000001f0: 4563 59bd d407 22be 3426 fbbe 6172 3fbf
00000200: 6fca 8cbe 70c8 af3e 4b83 76be 9d96 61bd
00000210: 7b99 2bbf 0b1a 0abf 707f 42be 9491 f4be
00000220: 6d17 f4bd 2a3c 653e 923d 19be e0ad c83e
00000230: aab8 1a3f 44ec 053f a52e b93e af61 2ebe
00000240: cc03 ecbd bab1 ee3e bfc7 11bf 2656 50bf
00000250: 4738 88be 1758 10bf 4a5b 11be 2946 ebbd
00000260: 2b7d c53d 23c5 8b3e 67a2 243e 06cd 03be
00000270: 5180 9bbd 4d45 5bbc 316e 86bd d450 edbd
00000280: a09c dbbd b45c 0b3e d437 e7bc d770 fcbe
00000290: cf1c 9cbe 08d3 bfbd 0183 493f b951 1c3e
000002a0: 3879 ffbe 7440 463c eab8 df3e a60f 903e
000002b0: d7ef c03d db8f 4e3e ff55 c3bd ae70 73be
000002c0: be12 41bc e3ec 0bbd 2df9 71be a9bd 95bd
000002d0: dff3 053f 9e9a eabc 23e8 0cbe b355 493e
000002e0: 7853 ac3e a6f9 553e fda0 e63e 24c6 12bf
000002f0: 2909 913d c13f 13bd 2f14 2dbe 3d98 f53d
00000300: f43c 84bc 3cf4 af3e 1e06 b2be 5154 b8be
00000310: deda 0fbe 14c0 6abe 7ae3 9b3c 58fd adbe
00000320: 6e7d 1e3d 64a8 44bf c7d8 b2be 0b90 58bd
00000330: 445c c83d 81be ed3e 9bb2 8a3e 772e 10bf
00000340: 03ad 303b 8c5f 0bbe c25f 18bf fbcc 153f
00000350: 3142 573e 6f8a 0cbf 4567 193e 9c67 393e
00000360: 59c6 2f3c de0f f63c 0ef0 113d ddef 0140
00000370: 8f50 77bd 24f7 80bd f92d 75be 1386 813e
00000380: f498 41bb cc3b 52be d3ec 6abf bcd4 733f
00000390: 6ac0 9c3c 9098 bfbd 0eb2 b73d 7f5d bcbd
000003a0: 7cc2 823e 297d 803c 4e0e babd 2940 773e
000003b0: 4ab1 683e 75b2 703e bd1a 1bbd 2dd6 d5bc
000003c0: e935 cdbe 9bdc d93c af21 d7be db9f af3c
000003d0: a456 e03e 1249 04be f89d 36be 5e3d 063e
000003e0: 7dca 113d 84e5 cbbd 14f5 4dbf f770 0cbf
000003f0: 4ea6 86be 46d8 933d 440f ec3d ac56 c1bd
0.49745646 -0.04449644 0.50945693 0.5446746 -0.19149649 0.31501874 -0.113671124 0.10531275
0.38588697 0.18691388 -0.10362039 0.2802079 0.09165424 -0.32352987 0.1446955 -0.6889659
0.3581879 -0.34284982 0.016217288 -0.6050599 0.19737822 0.6239342 0.054412495 -0.6982003
0.0017810265 0.37799242 0.31603673 0.0152479 -0.04447125 -0.73312426 -0.23754062 -0.16796622
-0.05525763 0.17763795 0.109287046 -0.39355326 -0.38032988 0.18409126 0.1777703 0.12009752
0.053629313 -0.15431048 -0.040925 1.1757314 -0.11636584 -0.049833614 0.3719989 0.39485136
-0.096023306 -0.017042315 0.103511356 -0.009182768 -0.82701933 -0.26790318 0.26688126 0.05323955
-0.15260045 0.34126174 0.38955402 -0.40332696 -0.36315456 0.16485432 0.25949225 -0.42631993
-0.03145124 -0.0036967895 -0.024445904 0.021311373 1.9557422 0.0025907375 0.14125757 0.09843143
0.20880626 0.30955237 -0.0029664529 -0.47515583 -0.33593646 -0.21692926 -0.8443398 -0.65438706
0.11165621 -0.0036217056 -0.11185971 0.072795406 -1.5274663 -0.11059056 0.22249949 0.15400867
-0.10811128 0.28319195 -0.0767235 -0.16602704 -0.09440977 -0.05167335 0.1983992 0.31773376
-0.2225566 0.13777767 0.01794434 0.3658869 0.4500252 0.47086808 0.25674677 0.24380453
0.085542805 0.36665958 -0.32710376 -0.14316596 -0.32110748 -0.2354727 -0.719493 -0.29908255
0.11400722 -0.20302248 -0.4018162 -0.22679868 0.5350862 0.069670364 0.14557599 -0.4187734
-0.25638634 0.42687184 0.24387002 -0.57175845 -0.053073186 -0.15823299 -0.49052584 -0.74783903
-0.27498195 0.3433261 -0.24073522 -0.055075277 -0.6703107 -0.5394599 -0.18993926 -0.47767317
-0.119185306 0.22386232 -0.14964893 0.39195156 0.60438025 0.5231364 0.361684 -0.17029451
-0.11524162 0.4661997 -0.56945413 -0.8138145 -0.26605436 -0.56384414 -0.1419498 -0.11487991
0.096430145 0.2729884 0.16077577 -0.12871179 -0.07592834 -0.013383222 -0.06563986 -0.11587682
-0.10723233 0.13609582 -0.028224863 -0.4930484 -0.3049073 -0.09366423 0.7871552 0.1526555
-0.4989717 0.012100328 0.43695766 0.2813694 0.09420746 0.20172064 -0.09537887 -0.23773453
-0.011784254 -0.03416146 -0.2363021 -0.073115654 0.5232524 -0.02863818 -0.13760428 0.19661598
0.33657432 0.20896015 0.450447 -0.5733359 0.07081825 -0.035949472 -0.1690223 0.11991928
-0.016142346 0.34366024 -0.34770292 -0.36001828 -0.14048335 -0.22924834 0.019029368 -0.33982348
0.038693838 -0.76819444 -0.34931013 -0.052871745 0.09783223 0.46434405 0.2708939 -0.563209
0.0026958592 -0.13610667 -0.59521115 0.585159 0.21021344 -0.5489873 0.149808 0.1810593
0.010728442 0.030036863 0.035629325 2.030265 -0.06037956 -0.06297138 -0.23943318 0.25297603
-0.002954063 -0.20530623 -0.91767615 0.9524648 0.019134719 -0.09355271 0.08969508 -0.091975205
0.25539005 0.015684681 -0.0908476 0.24145569 0.2272388 0.23505576 -0.037867296 -0.026103104
-0.40080193 0.02659445 -0.42017886 0.02143853 0.43816102 -0.12918499 -0.17833698 0.13109347
0.0355935 -0.09955886 -0.80452085 -0.5485987 -0.26298755 0.07218985 0.11526349 -0.094403595

layer1.bias f4 [128]
00000000: 5e98 8a3e 06c3 9f3d eb9d 9abe b4af cf3e
00000010: 125d b43e 39d7 693b 678e 4e3d 0714 483e
00000020: 06a2 233c 89f8 1dbe 1b94 6fbd 3951 0a3f
00000030: e7ca 933e 96d2 adbe 2039 963e 5070 80be
00000040: 4958 043f 7776 973e 9ac5 883e b2b8 c03e
00000050: 755b d53e 07cf 06be 624d 7f3e 53f7 a93e
00000060: e2b7 af3e 6c80 8cbe dba2 d5bc b2cf 46bc
00000070: 96f0 213b 7972 ab3e b828 7f3e 4d3d c83e
00000080: 6075 243e b1ff 773e 189f c43e 6dcb acbc
00000090: 8731 df3d cf87 b43d fb7d 823d 9164 683d
000000a0: e47c 163e 1e29 7f3e 3968 9fbe 5759 b63e
000000b0: a552 923e f75a 543e fad7 6e3e ac21 7e3d
000000c0: acbf 733b fc78 09be fcb8 973e 6fe0 4dbc
000000d0: d1b4 313e 83ee ca3d fe97 bb3e 7217 483e
000000e0: d584 683e 6edc 69bd ddf2 bfbe cb01 a13d
000000f0: a2e4 fd3d a2ec ebbc 38b7 bf3b 9e5b b73d
00000100: c087 39bd a068 ca3e 4467 debd adc4 d43e
00000110: 7afb 513d c741 2dbe 53bb a6be 57ba 80bb
00000120: 2005 3b3e 23f6 ef3b 9cf9 303e f388 b43d
00000130: 29b8 d63e f595 863e 7b74 5fbe 8a26 863d
00000140: b7af c93c c47f aa3e 64f1 843e 13f5 8bbe
00000150: 3848 c73e 7d8f aa3e dcc3 553e ca52 72be
00000160: 6bb4 3f3d 183e 0b3e 96f6 1ebe 7e8f ae3d
00000170: 012e 5ebc ad07 8bbe 5aca 753e b587 4b3e
00000180: 2102 88be cf69 bebb 77e3 8b3e 098f c83e
00000190: c915 2d3e 2c94 6f3e 3dac a3be a929 ab3e
000001a0: d47a 333e 8dbf 11bf b47f 943d ef5b 1d3d
000001b0: f074 503e 8123 0f3f 3d37 ca3d d822 01be
000001c0: 8ee8 4a3d 0c4c 5f3f a73a 1bbd bc7e 1b3d
000001d0: d372 1f3e 002a c6bd c8aa 173f 692c c33d
000001e0: 0b8d b13d 907a b33d 5288 b7be f618 a43c
000001f0: c38f 113e 2407 5bbe 8efc bc3e 7084 a9be
0.27069372 0.0780087 -0.30198607 0.40563738 0.35227257 0.0035681261 0.050428774 0.1953889
0.00998736 -0.1542684 -0.058490854 0.54030186 0.2886574 -0.33949727 0.29340458 -0.25085688
0.5169721 0.2958257 0.26713258 0.3764091 0.4167134 -0.13164912 0.24931863 0.33196506
0.3431998 -0.27441728 -0.026078632 -0.012134479 0.002471005 0.33485773 0.24917877 0.3910927
0.160604 0.24218632 0.3840263 -0.021093095 0.108981185 0.08814966 0.06371685 0.056736533
0.1469608 0.24918029 -0.31134203 0.35615036 0.28578678 0.20737825 0.23324576 0.06204383
0.0037193103 -0.13425058 0.2963332 -0.012565716 0.17354132 0.09908774 0.36639398 0.19540194
0.22706921 -0.057094984 -0.37489977 0.0786167 0.12397124 -0.028799359 0.005850699 0.089530215
-0.045295477 0.39532948 -0.1085954 0.41556302 0.051265217 -0.16919623 -0.32564792 -0.0039284634
0.18263674 0.007323043 0.17282718 0.088151835 0.41937378 0.26286283 -0.21821778 0.065503195
0.02461992 0.33300602 0.25965416 -0.27335414 0.38922286 0.33312598 0.20875496 -0.23664394
0.04680292 0.13597906 -0.15523753 0.08523463 -0.013560773 -0.27154294 0.24002972 0.19875987
-0.26564124 -0.005810953 0.2732198 0.39171627 0.16902842 0.23396367 -0.31967345 0.33430222
0.17527324 -0.5693291 0.0725092 0.038417753 0.20357108 0.5591355 0.09873817 -0.12610948
0.049538188 0.87225413 -0.037897732 0.03796266 0.15571146 -0.096759796 0.59244967 0.09529955
0.0866948 0.08763611 -0.35846192 0.020031434 0.14214997 -0.21389443 0.36911434 -0.33108854

layer2.weight f4 [128, 128]
00000000: 7035 013d 2286 a8bd 093f 82be f271 cabc
00000010: 3926 23bd 0b69 51bf d940 c8be d37d 133d
00000020: 6bb2 2bbf 4868 9abd 9985 8dbe a52a a3bd
00000030: d6e1 87bd a2bd e2bd 89c0 71bf e303 bcbc
00000040: bdd4 333d 1c86 723d 213b 0a3e f970 48bd
00000050: 5ad1 16be f6c5 9f3e 0fd1 2dbe d246 abbd
00000060: 9488 383d 4bad e4bd 8397 d83e b9d7 3ebe
00000070: 4b04 47bc 35aa 52bd fb33 783d 3333 49bd
00000080: d073 ae3d 8bd7 68be aa1e 2bbe 3649 74be
00000090: ab34 8b3c 23e9 2b3e a10c f1bd 3996 78be
000000a0: 711b 37bf f966 2f3c 7768 0f3e 0c65 15bd
000000b0: 698b c83e df46 c5bc d8e7 83bc 8f2f 0bbf
000000c0: 4c74 3abd 327f 203c 8642 f3bd bacd 9b3d
000000d0: 4295 50bc 9459 ae3d 1ba3 2e3c d49a 213e
000000e0: ccfd 25be e7f4 53bd aeb1 e93e 0632 96bc
000000f0: 6a80 1c3d 6c62 a5be 2728 683c 2016 0c3f
00000100: c45d 2bbe bf10 a43e f308 e7bd 3d1d f23e
00000110: d305 94bd 3e30 cfbd 0fdd 4a3f 9da0 89be
00000120: 4183 d638 7b37 6fbe 7dc5 093e f1ea e93b
00000130: 2c52 84bd 4e1c 013d 2733 de3e b269 70be
00000140: f487 9fbe 8b05 e93d 7f9f 59bd 27a7 3a3f
00000150: d56d 8b3d 3453 3bbf 57a6 a2bc b347 a13d
00000160: d4fe 573d ba50 b13d 23e8 e6bc 911e b53b
00000170: 5083 5f3d 2e99 9f3d ca01 e13c d002 423d
00000180: 7460 92bd 026f 043e 839f 9fbd 5636 35be
00000190: 8572 fb3d 2cd0 1ebd 83fe 34be c89c 093d
000001a0: e926 0c3e d9fd e4bd ae36 b83e a9df 9a3b
000001b0: 6be5 80bc ed66 f6be d0e8 c7bc d66d d73e
000001c0: 6ea4 973e 1bef e8bf 4f97 bb3d df25 133e
000001d0: 37a6 44bd 50f5 093f fe79 2ebf 9b92 153c
000001e0: 3371 9b3d 48c8 053d b70f 113f f34b 153f
000001f0: b4d4 ab3e ecd7 193f 310b 203b bd16 6fbf
00000200: 620d dcbc 7337 58be 5626 19bf ed19 9b3d
00000210: 369e 1c3e 1612 c23e cdbc 7c3e 04da 5f3e
00000220: d1f3 4e3f f1cd bc3e 47d0 2e3f e7a8 8f3d
00000230: e57d f5bb 2072 f93e 29b9 b63d 5b98 343f
00000240: ba61 083e 8370 84b9 3a5d ac3d b96a 8d3d
00000250: e075 f93d 5eb5 8cbd 5463 16be 89f5 bd3d
00000260: 9042 bc3d 57e8 c63f c06b 84be 019d 013f
00000270: b2c5 ef3e 1351 a5bd 9505 2fbe a9a1 323d
00000280: cf62 203e 0a80 903e fc6a 89bd 0369 013f
00000290: 7f7f 58bd 661f 12be 297d f23d 794f ab3e
000002a0: 3a09 173f 9b02 0c3e fb95 bf3e 6ec6 503d
000002b0: 36f3 7abe 7e4b 11be ac83 d23d 1ee7 623f
000002c0: 278e 33be b740 00bf c2ee 4abe 9389 c63e
000002d0: 8190 503e 23af 813e 0625 f63d 97bf cebd
000002e0: d82a 093d a52d 283e 3463 4abf bd53 0abd
000002f0: 8d15 bd3d 3d14 563e 09ee f23e 6024 b7be
00000300: e178 023f c14d 11bf 2186 723e 557a 5ebf
00000310: 8b31 62bc 6741 473d 4246 87bf 7a2b 873e
00000320: a129 bebd 5ea2 2e3f 3029 8bbd 5c84 0abd
00000330: 9b79 313d d693 653d fc05 cb3d 50bb debe
00000340: d024 913f f348 353d 33db 043e 74b9 8dbe
00000350: b8f0 debc 3d41 dc3d 66e8 353e bcd2 34be
00000360: 86f4 01be 2754 72be cf02 133f 3c44 5f3d
00000370: 75af 433f 7a80 0abf 2973 bd3d 457d 073e
00000380: abdc 993e 8cdf c53e d03f 153e a431 b8bc
00000390: 71d2 7bbe 0e62 0bbd 3e4e c4be ac36 8f3d
000003a0: 0ef3 c63d 0189 74be 667a efbd 49da 6c3d
000003b0: 0f26 29bd 0832 043d dad2 3e3e 30cc 0ebf
000003c0: 1823 d5be 9745 713e c54d 983e cff5 4dbd
000003d0: 5968 43be 0856 e7be 9e46 253f d86e 633e
000003e0: 4bc9 073e 830f 3cbe 872d c0bf 967d eebe
000003f0: 4294 36be 9d5e 17bf 267e 133e 4091 243f
0.031545103 -0.08228709 -0.25438717 -0.024712536 -0.039831374 -0.8180091 -0.39111975 0.036008667
-0.6706912 -0.07539421 -0.2764099 -0.07967118 -0.06634872 -0.11071326 -0.9443441 -0.022951072
0.043904055 0.059209928 0.13499118 -0.048935864 -0.14728299 0.3120572 -0.16974281 -0.08363117
0.045052126 -0.111658655 0.42303094 -0.18636979 -0.01214702 -0.051431853 0.060596447 -0.049121093
0.08518183 -0.22738473 -0.16710916 -0.23856053 0.016992887 0.16788153 -0.11769987 -0.24276055
-0.7152625 0.010705703 0.14004694 -0.03647332 0.39168862 -0.024081646 -0.016101763 -0.54369444
-0.045521066 0.009795951 -0.11877923 0.076075986 -0.012730898 0.085131794 0.010659005 0.15781718
-0.16210097 -0.05174723 0.4564337 -0.0183344 0.038208403 -0.32301652 0.014169729 0.5472126
-0.16734987 0.32044026 -0.11281004 0.47287932 -0.072276734 -0.10116623 0.7924356 -0.2688035
0.00010228763 -0.23361008 0.13454242 0.007138603 -0.064609855 0.031521134 0.433984 -0.2347782
-0.31158412 0.1137801 -0.053130623 0.72911304 0.06808058 -0.7317383 -0.019854708 0.07875004
0.052733257 0.086579755 -0.028186863 0.0055273254 0.05456859 0.077928886 0.027466673 0.047365963
-0.07147303 0.12932971 -0.07794096 -0.17696509 0.12277702 -0.038772747 -0.17675214 0.033596784
0.13686718 -0.1118123 0.35979217 0.0047263694 -0.015734395 -0.481254 -0.024403006 0.42075986
0.29617637 -1.8197969 0.09159719 0.14369915 -0.048010077 0.5388994 -0.68154895 0.009129192
0.075899504 0.032661706 0.56664604 0.58319014 0.33560717 0.60095096 0.0024420733 -0.9339407
-0.02686185 -0.21114902 -0.5982412 0.07573304 0.15294728 0.37904423 0.24681397 0.2186051
0.80840784 0.3687587 0.68286556 0.070146374 -0.0074918144 0.48719883 0.08922035 0.70544976
0.1331853 -0.0002526083 0.08416219 0.06905121 0.12180686 -0.068705305 -0.14686328 0.09275348
0.09192383 1.5539654 -0.25863457 0.50630194 0.46830517 -0.08072104 -0.17091973 0.043611202
0.15662692 0.28222686 -0.06709859 0.5055086 -0.052855965 -0.1426979 0.11840279 0.3345907
0.58998454 0.13672869 0.37419114 0.050970487 -0.2450684 -0.14188954 0.10279021 0.88633907
-0.17534696 -0.50098747 -0.19817641 0.38776836 0.20367624 0.2532893 0.120187804 -0.100951366
0.033488125 0.16423662 -0.7905762 -0.033771265 0.09232626 0.20906158 0.4744723 -0.3576994
0.50965697 -0.5675927 0.23683979 -0.86905414 -0.013805757 0.048646357 -1.0568316 0.26400357
-0.09285284 0.682165 -0.06794965 -0.033817634 0.043328863 0.05604919 0.09913251 -0.43502283
1.1339359 0.044259023 0.12974243 -0.27680552 -0.027214393 0.10754631 0.17764434 -0.17658514
-0.12690935 -0.23664914 0.5742616 0.054508433 0.764396 -0.5410229 0.09250481 0.1323138
0.3005117 0.38647115 0.14575124 -0.022484608 -0.24591996 -0.03402906 -0.38340944 0.0699285
0.09714328 -0.23880388 -0.116932675 0.05782536 -0.04129606 0.032274276 0.18635121 -0.55780315
-0.41628337 0.23561703 0.29746833 -0.05028325 -0.19082774 -0.45182824 0.6456088 0.22210252
0.13260381 -0.18365292 -1.5013894 -0.4658019 -0.17829993 -0.59128743 0.1440359 0.64284134

layer2.bias f4 [128]
00000000: 6e96 e9bd 7cbf 843d 52b4 963d f38e 1b3e
00000010: 4f27 b6bb 25de 80bc be5f 983d df66 ca3d
00000020: 6b0b 123e 98b3 8d3a f80b 6bbd 317f 51bd
00000030: b699 07be a532 d8bd 5601 0fbd 391c 8abd
00000040: 04e6 d53d e78a dc3c 74e9 fa3d 9abc e03d
00000050: 07ba 3fbc c7b1 2d3d 22f3 293e 111c 283b
00000060: daa0 ca3d d53f 4dbc ac53 21be 2078 de3d
00000070: 8234 8ebe 241e 213e 1af3 59bd 89c2 0d3e
00000080: 7238 1a3e 1e0d ccbd 1d4d ee3d c858 d53c
00000090: 1cd2 43bc c87d 193e e646 1c3e 321f 0abd
000000a0: 9152 cd3d e54f d2bd 5b29 e3bb 4a1a db3d
000000b0: 31fe 8b3c 7205 283d 7036 4abe 3235 593d
000000c0: 3426 d33d fc0e a6bd cb09 083e ec2c 0b3e
000000d0: ef6a 8f3d fbd2 1a3e e615 133e ea1d 043e
000000e0: e86a 47bd dbd5 2cbe a76d fc3b 7822 dfbd
000000f0: b32f 0e3e a6e4 eb3d 81f3 8abd c839 9cbd
00000100: 50a7 313e 7467 3c3d d31c 083e a8cd 55bd
00000110: 5abb f03c c865 e13d c1b9 093e 1cff 3ebd
00000120: d88d c2bd ffe5 31be 282d 52be cb23 eb3d
00000130: 537b 873d 364a 66bd 07c0 1cbc 1c93 aabd
00000140: 6e68 15be b573 4ebd 8266 b6bd ea67 ac3d
00000150: 2be8 1f3e 260e c5bd 82be 303e 9b74 f1bd
00000160: e2b4 f33d 29e2 88bd 38ef b23d 18ad 283e
00000170: 5777 72bd 7995 5a3d cd5d bcbc 7dd9 acbd
00000180: 2ce1 fbbd 1d38 5abd b3e8 bb3d 0920 643d
00000190: cb31 593b 54ac c2bd cba5 dc3d 5edc d53d
000001a0: d3e2 c7bd 2459 87be 5ed1 daba 9271 53bd
000001b0: c07d e1bd eb1c 2d3e fdaf c4bd 876f d83d
000001c0: 29dc a83a 8b42 ecbd 0e3e 0b3d b865 76bd
000001d0: ce93 38be b26b af3c 18e9 97bd 1528 58bc
000001e0: 8a54 293d 56fd 153e 84cc 0c3c 97fa 82bc
000001f0: 156b 913d e592 4abc 8eeb 1b3d 2cf4 703d
-0.11405645 0.06481835 0.07358612 0.1519125 -0.005558885 -0.015730927 0.074401364 0.09882902
0.14262168 0.0010810969 -0.05738446 -0.05114669 -0.1324223 -0.10556535 -0.034913383 -0.06743664
0.104442626 0.026921703 0.12251559 0.10973473 -0.011702067 0.04240587 0.16596654 0.0025651495
0.09893961 -0.012527426 -0.15754575 0.10862756 -0.27774435 0.15734154 -0.053210355 0.1384374
0.15060595 -0.099634394 0.11635802 0.02604331 -0.011951949 0.14989388 0.1526142 -0.033721156
0.10025514 -0.10269145 -0.00693242 0.106983736 0.017088981 0.041020818 -0.19747329 0.053029247
0.10310021 -0.08108327 0.13284986 0.13591355 0.07002818 0.15119545 0.14363822 0.12902036
-0.048685938 -0.16878454 0.0077035013 -0.10895246 0.13885383 0.115182206 -0.06784726 -0.076282084
0.17348981 0.045997098 0.13292246 -0.052198082 0.029386211 0.11005741 0.13449766 -0.04663001
-0.09499711 -0.17372893 -0.20525038 0.11481436 0.06615319 -0.056223117 -0.009567267 -0.0832884
-0.14590618 -0.050403316 -0.089062706 0.084182575 0.15615909 -0.09621839 0.17260173 -0.11789819
0.11899735 -0.066837616 0.087370336 0.1647228 -0.059195843 0.053365204 -0.022993946 -0.0843992
-0.122988075 -0.05327617 0.09175243 0.055694614 0.0033141251 -0.09505525 0.1077381 0.10442422
-0.0976006 -0.26435196 -0.0016694476 -0.05162198 -0.11010313 0.16905563 -0.096038796 0.10568147
0.0012882996 -0.115361296 0.033994727 -0.0601556 -0.18025133 0.021413658 -0.07417506 -0.01319315
0.04134039 0.14647421 0.008593682 -0.015988631 0.071005024 -0.012364124 0.03806644 0.05882661

layer3.weight f4 [4, 128]
00000000: 817e 8cbe 4338 f33e 0995 f5be fd96 083f
00000010: ba67 f3be f0f8 55bf 2c9f f7be 62a1 ce3e
00000020: 4de3 f33e 502d 4ebf f934 b5bc b7d5 713d
00000030: cdae 70bf 492c 26bf 52a5 d9bc b6a8 8abf
00000040: 1f78 c13e fa36 85bf c090 843f 103d 8d3e
00000050: 6340 4ebf a34e 6f3f 509c fb3e 39af e7be
00000060: ffdf a53e 62a8 51bf 1775 45bf 3574 ec3e
00000070: 2ad7 1cbf fe4b d93e a8d1 5b3c dae4 43bf
00000080: ae68 cc3e 238b 53bf 5eb2 ce3f 7901 fdbb
00000090: 0339 c4bf c5d5 2abf 2238 f63e 8e01 d7be
000000a0: 0a63 d23e 2d64 18bf 1458 073f 3cf6 b03e
000000b0: 9a76 0d3f 5784 f9be 07f1 0dbf 2ffb ea3e
000000c0: 7c4f 943e 0543 62bf 8ea1 c63e 2cb7 933e
000000d0: aaea fbbe c372 ca3e 8d30 54bf 2181 d53e
000000e0: f178 dbbe 6726 1abf b7b6 1ebd 9526 96bf
000000f0: f702 093f fd66 d33e 257a 07bf 6811 c1be
00000100: 4fd0 9f3e 2168 11bf 5302 033f 55f0 76bd
00000110: 164b 903e 12b3 dd3e af1c ce3e beda 1bbf
00000120: 3f30 7abf 4823 2bbf 7087 55bf c96f bc3e
00000130: 1936 b23e 98b8 253d f750 b73e bd02 3dbf
00000140: 5f00 3dbf 54a4 24bf 7243 cdbf 9bcd 12bf
00000150: 80ae df3e afd6 afbf 1b32 7f3d f83a 62bf
00000160: 5fc6 bd3e e303 49bf 3f1f 773e 98e5 ee3e
00000170: ad0b 63bd 4de5 8a3f 8b89 2abd 2cbb 87bf
00000180: 4c35 01bf 5cfd 73bf 06ed d8be cf14 873e
00000190: 13f5 89bf 38da 76bf 122c 0f3f aa7a cb3e
000001a0: f353 1bbf 6c71 1ebf d0da 06bf 547b 2dbf
000001b0: 64f3 2ebf 858b ca3e c669 2fbf d8d7 2dbe
000001c0: 7682 e7be ed8c 48bf 8601 ee3e fa88 36bf
000001d0: 30d4 9abf 56db 2a3f cd18 78bf dbfd 4f3f
000001e0: 5883 07bf b161 79bf b7fb cfbe edde 9c3c
000001f0: 5f70 f6be fd5d 27bf bca8 af3e f73d 4b3f
00000200: ac42 493e 4306 c33e f85b ffbe dbff 063f
00000210: 5a94 243f 8e3d 45bf 5856 cbbe 188d 013f
00000220: de39 003f 131c 21bf d914 9abc c246 0c3d
00000230: ec23 61bf 8bb1 00bf 0059 523b 299c 58bf
00000240: b781 7f3e 2b4a 37bf 730b 863f cb34 9e3e
00000250: 7371 37bf d2c4 4a3f d707 013f 7cf4 0dbf
00000260: e649 f53e d976 1cbf 3cbf 3dbf 4244 103f
00000270: 5ade 2cbf 8099 b63e 03e6 19ba e06f 50bf
00000280: ffa7 bc3e edad 1abf e795 bd3f 5e40 3cbd
00000290: 52c3 aabf 9818 c7be cbfb 023f baa6 ac3c
000002a0: 52e4 c43e e89a b7be 126a 083f aa00 933e
000002b0: ce06 093f ca85 34bf 6e6d dbbe 698e d83e
000002c0: 51ee bd3e 9b3f 12bf 026f 963e 2ae5 4d3e
000002d0: 9cf2 10bf 1985 983e 27b6 4cbf 4613 053f
000002e0: 1643 ddbe 1582 47bf c6fe 1c3d 69ec 84bf
000002f0: ef84 133f d9ee f43e dcdf 2ebf 7573 eebe
00000300: b36d c03e ff47 1bbf ceae d03e 55f7 0cbd
00000310: 6159 073f 73b9 013f 1818 b33e 0784 50be
00000320: 1a9e 41bf d9a0 4cbf 1745 46bf 8be6 d03e
00000330: 107d b63e fe4d 7a3d 73d7 3b3e 7b08 45bf
00000340: 5f45 40bf caf5 20bf 8a3a c9bf 4ff3 f9be
00000350: ce75 ed3e b8e7 73bf 84e2 b5be 09b9 09bf
00000360: f2c4 cd3e 5bfa 3cbf eb2e 9e3e ba55 d03e
00000370: 4c33 d4bc 5109 923f 9eeb e43c 6e6f 64bf
00000380: 5373 4dbf c3ea 53bf a4cf d8be fba4 ef3e
00000390: 9ee1 43bf afb4 76bf 0d25 f53e bbc2 f83e
000003a0: bcf9 1fbf 2a61 26bf 0766 dcbe feb2 17bf
000003b0: 6575 36bf 9147 ce3e 49b2 5dbf e973 82be
000003c0: c623 11bf e437 8dbf 46e9 093e 7f6f 58bf
000003d0: 5c20 82bf b7bc 273f 1105 67bf 41d8 1b3f
000003e0: dc59 1bbf 0cac 87bf f867 84bf 6b03 1abd
000003f0: f1dd e8be a211 10bf d420 ed3e 6512 133f
-0.27440265 0.47503862 -0.47965267 0.5335539 -0.47540075 -0.83582973 -0.48363626 0.403575
0.47634354 -0.8053789 -0.022119986 0.059041705 -0.94016725 -0.64911324 -0.026568089 -1.0832736
0.37786958 -1.0407403 1.0356674 0.2758565 -0.80566996 0.93479365 0.49142694 -0.45250872
0.32397458 -0.81897557 -0.7713179 0.4618241 -0.61265814 0.4244079 0.013416685 -0.76521075
0.39923614 -0.8263418 1.6148183 -0.007721123 -1.5329899 -0.66732436 0.480897 -0.41993374
0.41091186 -0.59527856 0.5286877 0.34562862 0.55259097 -0.4873378 -0.55445904 0.45894763
0.28966892 -0.88383514 0.3879513 0.28850687 -0.49202472 0.3954068 -0.8288658 0.4170008
-0.42865708 -0.6021485 -0.03874847 -1.1730524 0.5352015 0.4128951 -0.5292075 -0.37708592
0.31213614 -0.56799513 0.5117542 -0.060287792 0.28182286 0.43300682 0.4025626 -0.6088065
-0.9772987 -0.6685071 -0.83409786 0.36804035 0.34806898 0.040459245 0.3580396 -0.73832303
-0.7382869 -0.64313245 -1.6036208 -0.5734498 0.4368782 -1.3737391 0.062303644 -0.8837123
0.37065408 -0.78521556 0.24133013 0.4665954 -0.055431057 1.0851227 -0.041635077 -1.0603995
-0.5047195 -0.9530847 -0.42368335 0.26383063 -1.0777916 -0.96426725 0.5592662 0.39742023
-0.6067497 -0.6189182 -0.5267763 -0.6776631 -0.68340135 0.3955957 -0.6852077 -0.16976869
-0.4521672 -0.78340036 0.46485537 -0.7130276 -1.2096004 0.6674093 -0.96912843 0.8124673
-0.5293479 -0.9741469 -0.4062173 0.019149268 -0.48132607 -0.6537779 0.34308422 0.79391426
0.1965434 0.38090715 -0.49874854 0.52734154 0.64288867 -0.7704705 -0.39714313 0.50605917
0.500883 -0.6293346 -0.018808769 0.034247167 -0.8794544 -0.5027091 0.0032096505 -0.8461328
0.24951826 -0.71597546 1.0472244 0.30899653 -0.71657485 0.79206574 0.5040259 -0.5545118
0.47907943 -0.6111885 -0.74119925 0.56354153 -0.6752678 0.35663986 -0.0005870761 -0.8142071
0.3684692 -0.6042164 1.4811372 -0.045959823 -1.3340857 -0.3888595 0.51165456 0.021075595
0.38455445 -0.35860372 0.5328685 0.28711444 0.5352601 -0.70516646 -0.42856926 0.4229615
0.37095883 -0.57128304 0.29381567 0.2010695 -0.5662019 0.29789045 -0.7996544 0.51982534
-0.43215245 -0.77932864 0.03832891 -1.0384647 0.57624716 0.47838476 -0.6831033 -0.46572462
0.37583694 -0.6065673 0.40758365 -0.03441556 0.52870756 0.506736 0.3497932 -0.20362864
-0.7563187 -0.79932934 -0.7744917 0.4080089 0.3564229 0.061109535 0.18343906 -0.76966065
-0.7510585 -0.62875044 -1.572099 -0.48818442 0.4637894 -0.9527545 -0.3552438 -0.53797966
0.4018932 -0.7381951 0.3089517 0.40690404 -0.025903367 1.1409093 0.027944382 -0.8923253
-0.80254096 -0.8278009 -0.42345917 0.46805558 -0.7651614 -0.9636945 0.4787983 0.48586068
-0.6249044 -0.6499201 -0.4304659 -0.59257495 -0.7127288 0.40288976 -0.86600167 -0.25479057
-0.5669521 -1.1032681 0.13467893 -0.8454513 -1.0166125 0.6552233 -0.90242106 0.6087685
-0.6068399 -1.059938 -1.0344229 -0.037600916 -0.45481828 -0.56276906 0.46314108 0.5744994

layer3.bias f4 [4]
00000000: dcbb 1dbd 4338 c13d d6d4 663d ce94 05bc
-0.038509235 0.09434559 0.05635532 -0.008153154
