Assignment3/policy_net_final.pth (torch, 75490 bytes, 6 tensors)

layer1.weight f4 [128, 8]
00000000: 47d0 183f 662d 60bd bdbd fb3e e7c4 c83e
00000010: a3b6 d4be 2c0a 273e 0862 cbbd 2868 eb3d
00000020: f1db 823e 1850 563e 4c1b cabd 534a 783e
00000030: 9cd3 2ebb c48e 8dbe 9029 033e 14ab 2abf
00000040: 27a4 80be 9b35 a7be 84f2 e1bd 833c 01bf
00000050: 4545 3d3e eba4 1e3f dd53 063d 0988 40bf
00000060: 23a5 2c3c 5c44 aa3e 5c66 d43e 8e30 d1bc
00000070: d6e4 553d ab73 26bf 7a73 43be c7a9 2abe
00000080: e882 b03b 5502 493e 6538 113e 920a afbe
00000090: c652 97be b403 2a3e ef22 0e3e 17f4 ab3d
000000a0: 46f3 a2bd 1ce3 cebe 1d3a 96bd c5d2 a83f
000000b0: c3be 85be 54d6 ffbd d11f af3e 1764 b03e
000000c0: c1fa d53d 960e d93c 7605 993d cb6e 9ebb
000000d0: 3854 23bf 1024 a9be 3ea7 6b3e 6651 bf3d
000000e0: 6509 f5bd 33f4 a53e 316d c83e c191 c0be
000000f0: 11b6 d1be 92d0 1b3e 1451 6b3e 6c7d b0be
00000100: 9a03 083d ed98 2bbc cfd0 d6bc 9f57 053b
00000110: 7d66 d83f e855 47bc 9416 1a3e 6e80 9b3d
00000120: 1bac 4a3e b218 d53e 3154 6bbe f532 e0be
00000130: 1917 1bbe b5d2 8fbe 4829 34bf a4af ffbe
00000140: f7c6 e13e 2849 2f3d dda0 ffbe 55cd 403e
00000150: df4e 69bf 1772 c1be fb6b eb3d ee10 0a3e
00000160: bcab 6c3d 42d1 963e 5f6a 943d d118 2bbe
00000170: 2c74 e3bc f22d cbbc 585e 1e3e 050f 723e
00000180: 0753 7dbe 25d7 6a3d 2df4 f63c bb05 8d3e
00000190: 03b5 bf3e 0af8 c23e d70b 5a3e 74b6 573e
000001a0: a818 3b3e 8c84 6b3e 59f6 80be 7f07 2e3f
000001b0: aeba 4dbc eb18 d93e 151e 16bf 1417 79be
000001c0: e46d 803d 26c9 34be b2a6 67be f184 92be
000001d0: 8d86 e23e 7f99 3e3d 0a02 ad3d 6e40 c1be
000001e0: 9646 a0be fd0d a03e 6de7 ac3e 939f 31bd
000001f0: 4a53 60be 25e4 a43e d8f8 d8be 74f5 1bbf
00000200: bdd5 c9be b146 a83e 2ac9 10bd f41f f6bc
00000210: 661e e6be 1af7 30bf e1f9 9abe c05a e8be
00000220: 7a13 52be 8ed3 183e 3f8d eb3b 139d a43e
00000230: 2d86 f13e a068 103f 537d 963e e57b 27be
00000240: c993 79ba d7a4 0a3f 5737 32bf 6e68 21bf
00000250: 3623 903d b8dd 3cbf eb7c 4abe 4560 01bd
00000260: f1f6 c03d 9ca1 883e 78a8 863e ead9 06be
00000270: deb8 bfbb a48e 6abc 1a0b 74bd 141c dcbd
00000280: f2f3 653d 0db7 473e 822e d23d cddc edbe
00000290: a479 0fbe 7340 93bd 0195 153f a762 713c
000002a0: 50d8 20bf 5366 753d a048 263d 9be7 193e
000002b0: ce39 39be c0c9 403e b106 193d e36f 99be
000002c0: 14c2 c63b 15c3 34bd 155d 96be 302a 1dbd
000002d0: 36d6 233f d4f0 5cbd f6c8 04be 74c2 163e
000002e0: f4cc ad3e 8a65 5b3e 1a12 b93e 7d9c fdbe
000002f0: 44be 013e 48e6 f2bd 9de2 ffbd bcde d23d
00000300: fa0a 2fba f5d7 b13e df65 d1be 01ba 9cbe
00000310: 7d17 3a3d 9623 82be f391 8abc c9e9 91be
00000320: 9e41 cb3d 7d36 98bf d798 c2bd 4fc6 4c3d
00000330: 3e73 2b3e 8453 f43e b3d5 4c3e 9e8a 2cbf
00000340: 43d5 c63c 8eed ecbe 991e a6be 2732 3e3f
00000350: fe8a 9f3d dc53 5ebe bede 153e db0b 093e
00000360: 2676 2c3e eda8 b7be 0b70 67be aa2e e73f
00000370: 4d65 483d 5f6a 33be c436 97be 734f 9d3e
00000380: 74f1 323b ea44 19bf 1332 85bf 0995 493e
00000390: 4118 863d 9fd4 a93d 08d6 95ba c8e0 35bd
000003a0: c418 3c3e 977a acbc 196b 89bd 29cf 393e
000003b0: a84e 3f3e 6d33 143e ec38 8fbc d324 a8bb
000003c0: b9c9 b4be 92f8 9bbc 32d7 c4be aee3 a73d
000003d0: 7008 263f cac5 103d 77ab 06be c00d 093e
000003e0: eb7f dd3d 6610 6fbc 4aeb 43bf e0ec f3be
000003f0: b17c 8fbe e225 003e e1a2 ba3d 43d6 c1bd
0.59692806 -0.054730795 0.49168196 0.39212725 -0.4154559 0.16312474 -0.09930807 0.114944756
0.25558427 0.20928991 -0.09868488 0.24247102 -0.0026676422 -0.27647984 0.12808824 -0.66667295
-0.25125238 -0.32658085 -0.11032584 -0.5048296 0.18483455 0.61970395 0.032794822 -0.75207573
0.010537419 0.3325528 0.41484344 -0.025535848 0.052220188 -0.65020245 -0.1908702 -0.16666327
0.005386699 0.19629796 0.14181669 -0.34187752 -0.2955534 0.16602975 0.13880514 0.08396166
-0.07956557 -0.40407646 -0.07335303 1.3189322 -0.26122102 -0.12492052 0.34203961 0.34451362
0.10448218 0.026496213 0.07471745 -0.004834985 -0.6380038 -0.33035326 0.23013017 0.093416974
-0.119646825 0.32412872 0.39145806 -0.376112 -0.40959218 0.15216282 0.22980148 -0.3447069
0.03320656 -0.010473472 -0.026222615 0.0020346416 1.6906277 -0.012166478 0.15047675 0.075928554
0.19792216 0.41620404 -0.22981335 -0.43788877 -0.1514553 -0.28090444 -0.7037549 -0.4993869
0.4409711 0.042794377 -0.49927416 0.18828328 -0.9113597 -0.37782356 0.11495205 0.1348302
0.057780966 0.29456526 0.07246851 -0.16708685 -0.027765356 -0.024802182 0.15465677 0.23638542
-0.24738704 0.057334084 0.030145729 0.27543435 0.37442788 0.38079864 0.21293579 0.21065694
0.18271124 0.22999781 -0.25187948 0.6798019 -0.012556715 0.42401823 -0.5863965 -0.2432521
0.0627096 -0.17654857 -0.22622183 -0.2861705 0.4424328 0.046533104 0.084476545 -0.37744468
-0.31303853 0.31260672 0.33770314 -0.043365072 -0.21906772 0.3220531 -0.42377353 -0.60921407
-0.39420882 0.32866433 -0.035348095 -0.030044533 -0.44945067 -0.6912705 -0.30268767 -0.45381737
-0.20515242 0.14924452 0.0071884687 0.32151088 0.4717268 0.56409645 0.2939249 -0.16355856
-0.0009520618 0.54157776 -0.6961569 -0.6304997 0.07037966 -0.73775816 -0.19774215 -0.03158595
0.094221 0.26685798 0.26300406 -0.13169065 -0.0058508953 -0.014316235 -0.0595809 -0.10747543
0.056140848 0.19503422 0.10262777 -0.4645752 -0.14011246 -0.07190027 0.58430487 0.014732993
-0.62830067 0.059912037 0.040596604 0.15029757 -0.18088457 0.18826962 0.037359897 -0.29968175
0.0060656164 -0.044131357 -0.2936789 -0.03837031 0.63998735 -0.05394061 -0.12967286 0.14722615
0.3394543 0.21425453 0.36146623 -0.49533454 0.12670237 -0.11860329 -0.12494395 0.102963895
-0.0006677356 0.34735075 -0.40898034 -0.3061066 0.045432556 -0.25417775 -0.016915297 -0.28498676
0.09924625 -1.1891629 -0.09501808 0.04999381 0.1674318 0.47719967 0.20003395 -0.67399013
0.024271613 -0.4627499 -0.3244522 0.74295276 0.077901825 -0.21711677 0.1463575 0.13383429
0.16841945 -0.35871068 -0.22601335 1.8061116 0.048924733 -0.17521046 -0.2953397 0.30724677
0.0027304562 -0.5987078 -1.0405906 0.19685759 0.06547595 0.082925074 -0.0011431584 -0.04440382
0.18368822 -0.02105455 -0.067098804 0.18145432 0.18682349 0.14472742 -0.017483197 -0.005131343
-0.35310152 -0.019039426 -0.3844543 0.08197723 0.64856625 0.035344876 -0.13151346 0.13384151
0.10815414 -0.014591312 -0.765309 -0.4764166 -0.2802482 0.12514451 0.09113098 -0.09464695

layer1.bias f4 [128]
00000000: 118d 713e 2685 fd3d 15d6 6ebe e273 b73e
00000010: 4ea4 963e 0975 e4bb 7fcb 7a3d 73e3 333e
00000020: a42e 5c3c c2e0 c5bd 06e6 84bc 2846 db3e
00000030: 51b0 763e 2163 babe 35f8 643e 179a cabe
00000040: 2766 d53e 1822 763e b328 6b3e cb7b a03e
00000050: 2141 bd3e e2e2 05be f7e6 423e ec83 993e
00000060: 9f9d 9a3e 5ca2 5abe a5b6 b4bd b410 9f3b
00000070: 435f 343d b2df 8b3e e546 443e dcc2 a43e
00000080: d7c2 053e 657d 4e3e 057b 9a3e 761d 96bd
00000090: 0b00 e63d afca 1a3e 7224 203d ca44 d03d
000000a0: c1c6 4b3e df7d 5c3e 186d 9bbe 1d9b 9b3e
000000b0: a216 873e c67c 2d3e 75a5 513e a3b1 3a3e
000000c0: acbe a7bb 5143 05be 0f1f 803e dbdb d9bc
000000d0: 469e ce3d 84c2 d9bd 8566 9e3e 9c47 293e
000000e0: f664 3f3e 9316 a7bc 9a0e b7be 229e dd3d
000000f0: 5195 fd3d fce9 97bc c1b7 2a3d 6139 233e
00000100: d1a1 b93d a016 a23e af3c a4bd a133 b53e
00000110: 3345 823d 3f10 1cbe ff72 afbe bdc0 833d
00000120: 7024 293e 11b4 8dbb 4596 2f3e 61e3 e23d
00000130: 7b6b b03e 6ac7 803e bef4 3fbe e80b 023e
00000140: 018b 723b f86b 823e 38d3 683e 1bdc 94be
00000150: 7006 b83e fc7e b23e 5215 5a3e 5cba 66be
00000160: 9cd3 19bc 1feb f73d 7285 6abd fddc 803d
00000170: 9e71 d6bb 42d7 97be 35ca 453e 5e34 1b3e
00000180: ad71 40be 1552 e9ba 4e06 603e f680 c13e
00000190: 1424 1e3e 9cff 343e 51cb bbbe da7f 9a3e
000001a0: e2f8 493e b351 12bf 9e20 903d fcb5 4f3d
000001b0: 4f3b 2c3e b64e e53e 9ca2 843d c469 55be
000001c0: b48e e73d 727f 3c3f 8a72 e9bd ab3d c8bd
000001d0: 50ca 3e3e 3a2c 003c 54c2 ff3e 5cb3 9a3d
000001e0: c0b2 953d c423 0c3e 9643 bbbe 0a6a f93d
000001f0: 900e 0f3e 92ef bfbd 35bc 9e3e cf2f bebe
0.23588969 0.12378912 -0.23323853 0.358306 0.2942223 -0.0069719595 0.061229225 0.17567234
0.013438854 -0.0966201 -0.016222965 0.42826962 0.24090697 -0.36403754 0.22360308 -0.39570686
0.416795 0.24036443 0.22964744 0.31344447 0.36963752 -0.1307483 0.19033419 0.2998346
0.3019838 -0.21350998 -0.08823899 0.004854286 0.04403616 0.27319103 0.19167669 0.32179916
0.13062607 0.20165022 0.3017198 -0.07329838 0.11230477 0.1511638 0.039097257 0.101693705
0.19900037 0.21532391 -0.3035667 0.3039178 0.26384455 0.16942129 0.20473273 0.18231826
-0.0051191654 -0.1301396 0.25023696 -0.026594093 0.10088782 -0.10632804 0.3093759 0.16531223
0.18690857 -0.020396506 -0.35753328 0.10821177 0.123819955 -0.01854419 0.041679148 0.15939857
0.09064067 0.31657887 -0.08019387 0.35390952 0.06360855 -0.15240572 -0.34267423 0.06433246
0.16517806 -0.004324444 0.17147167 0.11078525 0.34457 0.2515214 -0.18745705 0.12699854
0.0037009122 0.25473 0.22736824 -0.29074177 0.3594241 0.34862506 0.21297196 -0.22532028
-0.0093888305 0.12105393 -0.05725617 0.0629215 -0.006544306 -0.29656416 0.19315417 0.15156695
-0.18793364 -0.0017800952 0.21877405 0.37793702 0.1544345 0.17675632 -0.36678556 0.30175668
0.19723848 -0.57155913 0.07037471 0.050710663 0.168195 0.44786614 0.06476328 -0.20841128
0.11306515 0.73631966 -0.113988 -0.09777387 0.18631864 0.007823044 0.49952948 0.07553741
0.073094845 0.13685519 -0.36575 0.121784285 0.13970399 -0.09371866 0.31002966 -0.3714585

layer2.weight f4 [128, 128]
00000000: c84e 003e 360d 01bd 5810 54be 135f 03bc
00000010: 8a91 bbbd f641 19bf e8db 22be 8a6d 8abd
00000020: 3c2e 3ebf 005f e5bc d612 4cbe 2101 b2bd
00000030: 6a46 4cbe ff2f 923d 2563 09bf ebef 91be
00000040: 4823 753d eaeb 8abd f737 223e 37d1 b6bd
00000050: 9d36 01be 1d7f 8bbd 5442 87bd e2d6 03be
00000060: 1609 723d c342 babd 3c15 1a3f 86f5 813c
00000070: 05ed ee3d a82f 0bbe 6a5b e63d 6c1b 283a
00000080: 1ffb 10bd 2139 73bc 2a85 9dbd 8545 9ebc
00000090: fb69 d43d 8822 9c3e ccef 1dbe 5fb4 a3bc
000000a0: eab3 24bf 02ae 35bd 9f04 6c3e 6e39 aebd
000000b0: 6782 a43e 12dc c9bc 6854 13bc aaf3 debe
000000c0: d7e0 503d 6475 26be 70ce 643d edfa b83d
000000d0: 6a18 943d cc34 81bd be1f 383b 70ac 273e
000000e0: 817c 3abe 01bc 54bd 5377 353f 7bce 853d
000000f0: 3060 05bd 66f6 95be 65d6 a2bc e7ef 2b3f
00000100: b98f 9fbe 3449 b23e ddc5 74bd 51b9 f63e
00000110: e3d5 9bbd 3fe4 f1bd cdf0 623f 0dd4 81be
00000120: dfd2 6abd fc4d a5be be74 3bbe c05d acbe
00000130: 2f0e c0bd 7875 a83d c29c ab3e 7f94 47bf
00000140: ee44 0ebf 8f5f 033e b9ff e3bd 3c7d 0b3f
00000150: 513c 9bbe a812 20bf 6dd0 d6bd 17f1 d8bd
00000160: 02c7 a73e a75e 83be 4c05 4f3e b417 1a3a
00000170: 0918 a73e e178 3c3e 0604 1ebd 803c 333d
00000180: 859d 8b3d dd43 583e 9f98 723c d1d7 5fbe
00000190: 7490 b73d fe4f 1fbe 8939 b3be dcac 163d
000001a0: 9b13 d03d 23ad a9be ceb3 6b3e c456 07bd
000001b0: 1e17 c3bd b28c 86be ccb2 233d b3ec f63e
000001c0: 0a9d bc3e 062d d3bf 62d6 8d3d d403 e83e
000001d0: 73b9 d7bb fb45 1c3f a424 92be d715 a8bc
000001e0: 96b5 193e 6fa6 e5bc 5c0e 343f d763 203f
000001f0: 35e3 e93d e705 3a3f 9ec8 a4bc e732 6cbf
00000200: 5bd7 8dbd 730a 75bd cf55 59bf f2c6 0e3e
00000210: f25c 0d3e 3463 af3e fb3d 553e e447 623e
00000220: 2cb6 3b3f 3bfa f03e b26e 0f3f 783d 9d3d
00000230: 841d 5fb9 1bab 453f 97b8 e03d c638 153f
00000240: 9675 383e 1c81 823a 3d96 033e bfd6 ce3d
00000250: 956f de3d c99b 40be 785e fcbd f3e2 e63d
00000260: 37ed 053e 7a1d 993f a68d 48be 7d33 3a3f
00000270: b8ab 0d3f 536a 02bd 317e 08be 9cf4 213d
00000280: 2ff8 2f3e eca9 a13e 7390 21bb f227 133f
00000290: f550 24bd 8430 efbd 0dd9 153e b62c 0a3f
000002a0: e5e5 fb3e b4a4 0e3e af17 063f aed9 aa3d
000002b0: 5240 30be 28f5 50be 0a1a dd3d 5aa9 033f
000002c0: 0ce9 2bbe 9747 e2be 4462 1dbe 8c94 7b3f
000002d0: c13c 913e 008c b13e 533b 073e 36c4 a2bd
000002e0: 8f7a 333d 74ec 813e 7d73 55bf 8906 cf3c
000002f0: cd51 a33d 742f 623e 3196 8d3f eeb3 fcbe
00000300: fe5a f93e 064f c5be 7242 233f f0b4 34bf
00000310: cc8a cfbc 875e e13d 5848 b6bf cda6 b93e
00000320: 4743 cebd a477 403f 6b7d 64bc cc01 b4bd
00000330: cdaf 6f3d 89a0 fb3d 8858 253e 5b2d 94be
00000340: e25b 9f3f 1d27 813d 4292 033e e885 fdbe
00000350: 85cd d1bc 8ffc c23d 5b57 293e 8c84 8abe
00000360: 46aa 3cbe 2413 50be 7755 813e 2acf 803d
00000370: f82f 583f d1a5 65bf 63ab f83d 9fb1 373e
00000380: bf11 023f 311b d43e 7022 673e 4786 7ebc
00000390: 482f 22be ea23 fcbc 3ac9 45be 6b55 c03d
000003a0: a493 fa3d c303 7cbe 8fc8 c4bd cf54 353d
000003b0: 3801 06bd 567c 2e3d 4bc1 6c3e 6097 1ebf
000003c0: acbd 7bbe dd93 5c3e 3df4 a83e 7361 a6bd
000003d0: f7ad 8cbe 8a9c c0be 20b2 173f ebf4 5d3e
000003e0: fbde 3f3e eb88 9bbe 10d2 0cc0 c3e2 0abf
000003f0: b148 07be 6b8f 373d 0912 1f3e d3ab 463f
0.12530053 -0.03150674 -0.2070936 -0.008018273 -0.09158619 -0.59866273 -0.159042 -0.06759174
-0.742893 -0.027999401 -0.1992906 -0.086916216 -0.19948736 0.07138061 -0.5366691 -0.28503355
0.0598481 -0.06783278 0.15841661 -0.08926623 -0.1261849 -0.06811354 -0.06604448 -0.1287494
0.059090696 -0.09094765 0.6018865 0.015864145 0.11666302 -0.13592398 0.112479046 0.00064127776
-0.035395738 -0.014845164 -0.07691415 -0.019320259 0.10371777 0.30495095 -0.15423506 -0.019983469
-0.6433703 -0.0443554 0.23048638 -0.085070476 0.3213074 -0.02464107 -0.008992292 -0.43545276
0.050995674 -0.16255718 0.055860937 0.09032235 0.07231219 -0.06308898 0.0028095092 0.16374373
-0.18211557 -0.051937107 0.708852 0.06533524 -0.032562435 -0.2928955 -0.019877622 0.67162937
-0.3116434 0.34821475 -0.05975901 0.4818826 -0.07609155 -0.118111126 0.8864868 -0.25357094
-0.05733001 -0.3228606 -0.18306252 -0.33665276 -0.09377705 0.082255304 0.33518034 -0.7796096
-0.5557393 0.12829421 -0.111327596 0.5448797 -0.30319455 -0.6252847 -0.10488973 -0.10592859
0.32769018 -0.25658152 0.20216864 0.0005878166 0.32635525 0.18405487 -0.038578056 0.04375887
0.06817154 0.21119638 0.0148068955 -0.21859671 0.08963099 -0.15557858 -0.35004833 0.036785945
0.101599894 -0.33139905 0.23017809 -0.03304173 -0.09525894 -0.26279217 0.039965436 0.48227462
0.3683856 -1.6498115 0.06925656 0.4531542 -0.0065833866 0.6104428 -0.2854358 -0.020518227
0.15010676 -0.028033463 0.7033441 0.62652344 0.114202894 0.72665256 -0.020115193 -0.9226517
-0.069258414 -0.05982442 -0.8489656 0.13943079 0.13804987 0.34255373 0.20824425 0.22097737
0.7332485 0.4706591 0.5602828 0.0767774 -0.00021277933 0.7721421 0.10972708 0.58289754
0.18013605 0.000995669 0.1285028 0.10099553 0.10861126 -0.18809427 -0.12322706 0.11273756
0.13078772 1.196212 -0.19585285 0.72734815 0.55340147 -0.03183968 -0.13329388 0.03953992
0.17184518 0.31574953 -0.0024652749 0.57482827 -0.04011627 -0.116791755 0.1463358 0.53974473
0.49198833 0.13930017 0.5237989 0.083423 -0.17212036 -0.2040602 0.10795982 0.51430285
-0.16788119 -0.44195244 -0.15369517 0.9827354 0.28366664 0.34677124 0.13206224 -0.079475805
0.043818053 0.25375712 -0.83379346 0.02527167 0.07974587 0.22088414 1.106146 -0.49356025
0.48702234 -0.38536853 0.6377326 -0.7058859 -0.025334738 0.11004358 -1.4240828 0.3626007
-0.10071426 0.7518256 -0.013945918 -0.08789405 0.058517266 0.12286479 0.16147053 -0.28940853
1.2449915 0.063062884 0.12848762 -0.49516225 -0.025610695 0.09520828 0.1653723 -0.2705425
-0.18424329 -0.20319802 0.25260517 0.062895134 0.84448195 -0.8970614 0.121420644 0.17938851
0.5080833 0.41426995 0.2257173 -0.015534944 -0.15838349 -0.030778844 -0.19315043 0.09391292
0.122351915 -0.2461081 -0.09608566 0.044270333 -0.032716006 0.042599045 0.2312061 -0.6194973
-0.24584073 0.2154078 0.3299884 -0.08124056 -0.27476475 -0.3761943 0.5925617 0.2167546
0.18737404 -0.30377898 -2.2003212 -0.5425226 -0.13211323 0.04481451 0.15534224 0.7760593

layer2.bias f4 [128]
00000000: d55f e9bd 154a a43d 335a 6d3d f163 153e
00000010: eefb 94bc 6663 a03c 4db8 723d 4f5e ce3d
00000020: ce7d 0e3e 738a 24bb 3987 3fbd 22a4 2abd
00000030: 9740 adbd 8ec2 a3bd 63eb 00bd 270b 9a3b
00000040: 4edc dd3d 56c9 8d3d 7050 2c3e 253f df3d
00000050: cdb9 d43a a986 873d 239e 1f3e 1967 8b3b
00000060: 4fde c83d 354a 99ba b41f f9bd 6d6a df3d
00000070: cc8b 67be c793 193e e9a7 31bd 0a26 ed3d
00000080: 51be 133e c13b 9fbd 28c2 d93d ecb5 ad3c
00000090: 4469 8dbd ef86 ed3d 2a53 153e 0c53 363d
000000a0: 489b d03d 2acb acbd 253d 823c 3ab7 de3d
000000b0: a008 c2bc 80e7 2f3d 3cda 24be 3b5e 833d
000000c0: 7335 cf3d 2a26 43bd 0d29 053e bfbf 053e
000000d0: 4a78 573d f650 143e b334 d83d ce3a fd3d
000000e0: a6ab a53b 4ddf 0cbe d8a0 cd3b dbcf e1bd
000000f0: a8d7 093e d6dc e53d 9767 23bd 385a 7ebd
00000100: e55d 223e 4924 063d 094b 073e 7c26 febd
00000110: 9220 753d 56f2 de3d 1beb 063e 3cd1 66bd
00000120: bd3d 00be 9e9f 22be ee70 cdbd ba8d e63d
00000130: 26d7 943d 198d 3bbd 3b18 b83c c805 8bbd
00000140: 835d 05be 6e96 36bd fbfa 0fbe e47a 813d
00000150: a9a9 163e 9bc7 0dbe ff38 0f3e 4a51 16be
00000160: 2b4b eb3d 45d8 a5bd 6c90 b63d 35d0 203e
00000170: 768e 45bd 1a7f 913d db96 99bc f3e3 abbd
00000180: 9d3b 9cbd 10e3 31bd a8d4 9f3d b4d2 7f3d
00000190: b5df 02bc fca3 20be d85f ee3d 9fb4 d63d
000001a0: 2ce5 3cbd 2e1e 5cbe c67b 96bb 71fc b13b
000001b0: 4f06 30bd e17b 213e c14a 28bd 22d5 093e
000001c0: 606d 30bb a1c7 96bd 1e4e 683c c1d0 15bd
000001d0: 2396 e6bd 20aa 383d 251a 77bd 621b a63c
000001e0: 48eb c83c 54ec e23d 75d3 e33c 1834 55bc
000001f0: 6e37 583d 102c 72bc 6232 4b3d fa02 d93d
-0.11395232 0.080219425 0.05794735 0.14588906 -0.018186536 0.019578647 0.059257794 0.10076582
0.13915178 -0.0025106936 -0.046759818 -0.041660435 -0.08459585 -0.07996093 -0.031474482 0.0047010365
0.108330354 0.069231674 0.1682756 0.10900716 0.0016229689 0.06617481 0.15587668 0.0042542336
0.09808027 -0.0011695089 -0.1216425 0.10908971 -0.22611922 0.14997779 -0.043373022 0.11579521
0.14428069 -0.07775069 0.106327355 0.021204911 -0.069048434 0.11598002 0.14582506 0.044512793
0.101858675 -0.08437188 0.015898297 0.108747914 -0.023685753 0.042945385 -0.16098875 0.064144574
0.101176165 -0.047643818 0.13003941 0.13061427 0.05260495 0.14484009 0.105569266 0.12364732
0.0050558625 -0.13757057 0.0062752776 -0.110259734 0.13461173 0.11223762 -0.039893713 -0.062097758
0.1585613 0.032749448 0.13212217 -0.12409684 0.059845515 0.10886066 0.13175623 -0.056351885
-0.12523551 -0.15881202 -0.10031305 0.11257501 0.07267599 -0.045788858 0.022472491 -0.06788212
-0.13023953 -0.044577055 -0.14060585 0.06322268 0.14713158 -0.13845675 0.13986586 -0.14679447
0.114889465 -0.08097891 0.08914265 0.15704425 -0.048231564 0.07104321 -0.018748691 -0.08393087
-0.07628558 -0.043429434 0.07804233 0.0624568 -0.007987906 -0.15687555 0.116393745 0.104836695
-0.046116993 -0.21495888 -0.0045923917 0.0054317047 -0.042974766 0.15769912 -0.041086916 0.1346021
-0.0026920661 -0.07362295 0.014178781 -0.036576036 -0.11259105 0.04508412 -0.060327668 0.020276729
0.024526253 0.11080232 0.027810792 -0.013012908 0.052787237 -0.014781013 0.049608596 0.10596271

layer3.weight f4 [4, 128]
00000000: 0f24 a0be 9ab9 003f efc6 fdbe 0da2 0b3f
00000010: 3f7b 27be 5cf0 8fbf 61ca 07bf 637e f13e
00000020: a25a fe3e 185e 4cbf a7a1 93bc 240b 453d
00000030: 5fe6 37bf dc31 41bf cfe2 9dbc dc44 abbf
00000040: a129 c73e 82d7 adbf 1901 783f e5f6 9f3e
00000050: a67f 86bf 4990 ac3f d039 003f 6e11 f5be
00000060: 4493 b73e 14a6 32bf 154a 8dbf 99cb ec3e
00000070: c565 ffbe 90d8 dd3e a72c 333c 129b 48bf
00000080: a368 d33e 5428 82bf 0f6f c33f 941a cebb
00000090: b3e9 c6bf 6fa3 26bf 27b2 fb3e b497 dabe
000000a0: de48 d63e 1a2f b0bf 0ed2 073f 8363 b93e
000000b0: a3e8 233f 91ab ecbe 531b e7be e488 ed3e
000000c0: 901f a13e 3643 9ebf 5a76 ca3e c70c 9e3e
000000d0: e97f 03bf dc01 cf3e 57e2 7cbf 6ebb e43e
000000e0: 776f 86bf dfd2 fabe 7551 01bd aac0 69bf
000000f0: aeb7 123f cb9d d73e 7ecd 01bf b534 9dbe
00000100: a708 ab3e 2400 0fbf 41ee 033f bb7a c0be
00000110: 4482 903e a536 ec3e 1bfd d53e 56b9 2dbf
00000120: a4d7 afbf 2578 3fbf bb14 78bf 5058 c23e
00000130: a4e7 ba3e 2d0d 073d b373 ee3e bb15 1abf
00000140: 66db 6fbf cb98 55bf 588c 02c0 16df 1ebf
00000150: cf3b e83e c0fd 8bbf 4c7a e6bc a78d 95bf
00000160: e26d c23e 0680 77bf 83f3 913e faf5 f63e
00000170: abf4 38bd 4fdf 883f f4fd 0abd 1702 50bf
00000180: c4b7 1cbf 59cb 46bf 16c8 e3be b846 a13e
00000190: 31af cbbf ad4c cfbf d008 163f ed4d da3e
000001a0: 8469 22bf c318 01bf 5623 07bf 5aee 19bf
000001b0: 3176 67bf 03c9 d23e c68a 3cbf 5a8f a0be
000001c0: c4cc f5be 4dd4 4bbf 96cd bf3e dc02 3abf
000001d0: cc34 d6bf dc09 1e3f a521 4abf 086c 473f
000001e0: 6737 0bbf 0c9f 77bf af2d bebe f672 7f3c
000001f0: 8007 f8be 09d2 1abf 7608 c23e d6d1 4b3f
00000200: 310b 993e 6447 d93e e249 febe 9f7c 0c3f
00000210: ccd8 253f be28 89bf 7ca2 e3be d2eb 143f
00000220: cca4 053f 039c 2bbf 09b5 7abc e054 e43c
00000230: d24f 30bf 5a0d 50bf 454f 2b3b c08a bebf
00000240: 4d28 8f3e 43a5 7cbf 63e6 853f 6c56 b93e
00000250: 13ff 62bf e8b6 933f 4560 033f 962a 0ebf
00000260: a5f5 f63e a3b9 05bf 6286 78bf 82ba 113f
00000270: 40e6 0cbf c046 c33e 6a65 fab9 e508 4abf
00000280: e89f c73e 90ef 52bf 7455 cd3f 3680 19bd
00000290: 584c c9bf 0a2b d1be 394e 053f c29b 21bd
000002a0: 8211 ce3e c1db 8cbf d264 063f 3988 a03e
000002b0: f7a9 293f e039 4bbf 78dc b2be 762e e03e
000002c0: a776 c23e bae0 77bf b5d4 a13e 45da 673e
000002d0: 54a1 13bf 0fa3 a63e 6bf4 87bf e1cc 073f
000002e0: 9c44 20bf 6690 22bf 1ba9 ff3c 5e0a 64bf
000002f0: e707 1e3f 4368 f53e 5b68 18bf 4e4b c2be
00000300: 4b97 c53e bf70 28bf 7c02 df3e 69eb 64be
00000310: 7a80 1c3f ec6a 023f d433 c13e bdaf 8dbe
00000320: 5af2 bebf 1417 8cbf 123c 3bbf b28f d73e
00000330: bd46 be3e 20e1 4b3d 2afd c73e 4678 20bf
00000340: b08d 90bf d7bd 8dbf 7ecf dfbf 6566 0dbf
00000350: 3949 f73e 3851 5abf d1e2 dfbe 138f 71bf
00000360: 41fe d03e ec0c 44bf 057d b03e 65cd dc3e
00000370: eec3 acbc 2c67 7b3f 9f74 ba3c 415f 5abf
00000380: 2e34 52bf ef8a 2cbf 5df8 e9be ab8c fc3e
00000390: 90a9 65bf d73d 9abf 41dd 063f 97a1 fc3e
000003a0: 5b4e 66bf 1997 07bf 7ae6 e8be 06e3 e3be
000003b0: 1315 8fbf 7130 d83e 2408 69bf 3c11 c8be
000003c0: e821 19bf 44f4 7fbf d82f ca3e 90c3 5bbf
000003d0: d099 55bf 859b 193f 9522 3cbf e685 153f
000003e0: 2a39 1abf 1470 89bf e786 8fbf 6797 fabc
000003f0: 5369 e9be f478 28bf dee6 f43e 745e 7a3f
-0.3127751 0.50283206 -0.49565837 0.54544145 -0.16355608 -1.1245227 -0.5304318 0.47166738
0.49678522 -0.79831076 -0.018021418 0.048106328 -0.71835893 -0.75466704 -0.01927319 -1.3380389
0.38898948 -1.3581393 0.96876675 0.31243053 -1.0507705 1.3481532 0.50088215 -0.4786486
0.35854542 -0.69784665 -1.1038233 0.46249083 -0.49882331 0.43329287 0.010935939 -0.7836162
0.4129077 -1.0168557 1.5268267 -0.0062897895 -1.5540069 -0.6509313 0.49159357 -0.42693865
0.41852468 -1.3764374 0.53054893 0.36208734 0.6402685 -0.46224645 -0.45138034 0.46393502
0.31469393 -1.2364261 0.3954342 0.30869123 -0.5136705 0.40431106 -0.9878287 0.44674248
-1.0502766 -0.48989007 -0.031571824 -0.9130961 0.5731152 0.42112574 -0.5070418 -0.30704275
0.3340504 -0.5585959 0.5153542 -0.37593636 0.28224385 0.4613544 0.41794667 -0.67860925
-1.3737683 -0.747927 -0.9690663 0.37958002 0.36504853 0.03297155 0.46572646 -0.6018941
-0.9369415 -0.8343627 -2.039816 -0.6205915 0.4535813 -1.0936813 -0.028134488 -1.1683854
0.3797446 -0.96679723 0.28506097 0.4823454 -0.04515521 1.0693148 -0.033933595 -0.8125319
-0.61217904 -0.77654034 -0.4448859 0.31499267 -1.5912839 -1.6195275 0.58607197 0.42637578
-0.63442254 -0.5042841 -0.52788293 -0.6012932 -0.9041472 0.41168985 -0.7364925 -0.3135937
-0.48007786 -0.7962082 0.37461537 -0.72660613 -1.6734862 0.61733794 -0.7895759 0.7789922
-0.5438141 -0.9672706 -0.3714423 0.015591374 -0.48443222 -0.6047674 0.3789708 0.7961706
0.2989135 0.4243728 -0.49665743 0.54877657 0.6478393 -1.0715559 -0.44459903 0.58172333
0.52204585 -0.6703493 -0.015301951 0.027872503 -0.68871796 -0.8127037 0.0026139778 -1.4886093
0.27960435 -0.9868967 1.0460933 0.36198747 -0.8867046 1.1540194 0.5131877 -0.5553373
0.48234287 -0.52236384 -0.9708005 0.56925213 -0.55038834 0.38139915 -0.00047759275 -0.7891982
0.38989186 -0.82396793 1.6041703 -0.037475787 -1.5726423 -0.4085315 0.52072483 -0.039455183
0.40247732 -1.1004564 0.5249759 0.3135393 0.6627497 -0.79385185 -0.3493383 0.43785447
0.3798115 -0.9682728 0.31607595 0.22641857 -0.5766804 0.3254628 -1.0621465 0.53046995
-0.6260469 -0.63501585 0.031208565 -0.8907832 0.6173081 0.47931108 -0.59534234 -0.37948078
0.3859199 -0.65797037 0.43556583 -0.22355427 0.6113354 0.509444 0.37734854 -0.2767314
-1.491771 -1.0944543 -0.73138535 0.42101818 0.37163344 0.049775243 0.39060336 -0.6268352
-1.129324 -1.107356 -1.7485197 -0.55234367 0.48298052 -0.8528018 -0.43727735 -0.9435894
0.4081898 -0.7658222 0.34470382 0.43125454 -0.02108952 0.982043 0.022760687 -0.85301596
-0.8211087 -0.67399496 -0.456973 0.4932607 -0.89711857 -1.2050122 0.52681357 0.49342033
-0.8996331 -0.5296493 -0.4548834 -0.44509143 -1.1178306 0.42224458 -0.91028047 -0.3907565
-0.5981736 -0.99982095 0.39489627 -0.8584528 -0.83437824 0.6000293 -0.7349027 0.5840744
-0.60243475 -1.0737329 -1.1213044 -0.030589772 -0.45588169 -0.6580956 0.47832388 0.97800374

layer3.bias f4 [4]
00000000: 95f0 943b f1e7 9a3d 1d54 6a3d c40c 2fbc
0.004545281 0.075637706 0.057209123 -0.010684196
